weights/actor_r2_ckpt.pth (torch_old, 548262 bytes, 10 tensors)

fc1.weight f4 [400, 33]
000000 68 fa 95 bf e4 18 77 bf 05 26 b3 3f 90 1e 79 3f
       -1.1717043 -0.96522355 1.3995978 0.9731226
000010 46 66 89 bb 04 aa 34 40 94 45 69 3f 69 29 5a bf
       -0.0041931 2.822877 0.9112179 -0.85219437
000020 8f 4c 44 3d 54 f4 1b bf 0a d3 75 bf 8e b3 11 bf
       0.047924574 -0.6091969 -0.96025145 -0.56914604
000030 b5 36 84 3a 20 d5 67 3f f5 91 de bc 66 68 81 be
       0.0010087105 0.9055958 -0.027169207 -0.25274962
000040 a4 2e 37 bf 82 67 9a bf 77 77 f2 3f 1f 23 d8 bd
       -0.7155554 -1.2062838 1.8942708 -0.10553574
000050 99 ee 46 3f 67 8a 1d 3f 69 81 87 3e c3 d8 d2 3f
       0.7770782 0.6153931 0.2646592 1.64724
000060 19 6a 5a bf c0 64 a0 bf 55 0a f6 be b9 f1 05 3c
       -0.8531814 -1.2530746 -0.48054758 0.008175307
000070 da 32 b2 3f d2 71 aa 3c 3c ae 43 3d 93 85 2c bd
       1.3921769 0.020806227 0.047773585 -0.042119574
000080 d0 f2 66 40 67 88 65 3f 4d 44 51 3f c0 fb ac 3f
       3.60857 0.8966126 0.81744844 1.3514328
000090 24 ef b5 3f fa c3 d8 bd f9 96 5e 3e d2 09 04 bf
       1.4213605 -0.105842546 0.21737279 -0.51577485
0000a0 35 13 cb be e1 4e 1b 3f 50 10 db 3f 10 1e 9b 3e
       -0.3966309 0.60667235 1.7114353 0.30296373
0000b0 26 57 94 3d d7 d2 78 3c 3e 2f 52 bf f8 a5 52 bf
       0.07243185 0.015186987 -0.82103336 -0.822845
0000c0 5c cd 0e c0 c4 c7 81 3f fb 87 89 3c 14 79 6b 3c
       -2.2312841 1.0139089 0.016788473 0.014372129
0000d0 b0 d6 8c 3e 96 e7 c0 3e f3 4f 3f bf 0c 71 51 be
       0.27507544 0.37676686 -0.7473137 -0.2045328
0000e0 28 ba 25 bf 98 2f 73 3d e7 99 03 c0 b8 f6 57 be
       -0.64737177 0.05937156 -2.0562685 -0.2109021
0000f0 d9 9e 61 bb cf 1b 8f 3d 0d 67 1a bd ad 04 2e 3d
       -0.0034426956 0.06987726 -0.037695933 0.042484928
000100 57 03 e3 bc 9e 99 54 c0 68 7d c7 3d 54 5e 27 bf
       -0.027711553 -3.321876 0.09740716 -0.6537831
000110 ad 50 01 c0 f6 41 1e bf c1 9e b8 3f e3 b2 76 3e
       -2.020549 -0.618194 1.4423448 0.24091677
000120 86 46 81 3f 37 1d 26 c0 07 75 5b be bd b6 3d bf
       1.0099647 -2.5955331 -0.21431361 -0.7410696
000130 53 c2 2d 3f b0 fa d9 be 39 5a b6 3e c2 67 0e bf
       0.6787464 -0.42574072 0.3561571 -0.5562707
000140 a2 86 42 3e f1 c4 57 3f 7c 66 c5 3f 8a 09 1e bf
       0.18996671 0.84284884 1.5421901 -0.61733305
000150 96 fb ec 3d 74 8c 7c 3f f0 74 35 40 5b fb 97 3e
       0.11571424 0.98651814 2.8352623 0.29683957
000160 71 de 38 be 4c dd 61 bf a0 59 5b be d7 53 6c be
       -0.18053605 -0.882283 -0.21420908 -0.23078857
000170 b5 70 11 bf 21 e6 21 bc 83 4f b5 3f 18 cb ca 3b
       -0.568126 -0.009881527 1.416489 0.0061887614
000180 6d 13 32 bd 41 a0 42 3d 05 fb b5 3f 78 c8 d9 3f
       -0.043475557 0.04751611 1.421723 1.7014303
000190 40 97 c9 3f e9 66 7c 3f 46 03 b5 3f 78 3e 1a bf
       1.5749283 0.9859453 1.4141624 -0.6025157
0001a0 b0 af 1b 3f d3 5f 1d 3f cf 99 28 bf b7 be 70 3f
       0.6081495 0.6147434 -0.65859693 0.9404101
0001b0 21 c4 14 be cb b3 06 3f ab ce 1f bf f9 46 80 3f
       -0.14527942 0.5261809 -0.62424725 1.0021659
0001c0 ee 85 9c bf 72 25 a4 bf 9b e9 12 3d e6 cd 1c bf
       -1.2228372 -1.2823927 0.035867315 -0.61251676
0001d0 9b e2 24 bf 1c 60 ce 3e 8f 9f 6b 3e 6f a7 5d 3f
       -0.6440827 0.403077 0.23010086 0.8658361
0001e0 b4 93 65 bf a4 84 5b 3e 7a be 9e 3f 70 3f e2 be
       -0.896785 0.21437317 1.2401879 -0.44189024
0001f0 33 16 a0 bf 91 db 03 bc ba 4b 2d bd 44 dd b5 bf
       -1.2506775 -0.008047954 -0.042308547 -1.420815
000200 e0 ba 48 3c 1a 93 14 3d aa ca 1f bd 74 fc ff bf
       0.012251586 0.0362731 -0.039011635 -1.9998918
000210 b1 68 88 3d 7a c3 a1 bc c9 1f 76 3c 90 35 19 3d
       0.06660593 -0.01974653 0.015022227 0.037404597
000220 73 2e b2 bb 6e 25 9b bc 0a fb 64 3d c7 86 a4 bc
       -0.005437666 -0.018938746 0.055903472 -0.020083798
000230 18 46 24 bd 37 65 35 bd 36 00 7f bd 6a cb 75 3d
       -0.04010591 -0.04428598 -0.06225606 0.060008444
000240 d5 2d 7b 3d e4 91 e5 3b 45 6d e8 bc 5a ab f9 3c
       0.061323006 0.007005917 -0.028372416 0.030477215
000250 f8 f8 0f bc 57 9d 1d 3d 5b fb b4 bc 4d 46 1d bd
       -0.008787386 0.03848013 -0.022092512 -0.038397122
000260 42 11 06 3d 71 3d 52 3c 4a 7d 43 3d 8f 09 4e bc
       0.032731302 0.012832032 0.047726907 -0.012575521
000270 69 40 eb ba 22 dc 24 3c 62 6f 37 3d fd 36 01 3d
       -0.0017948273 0.010062249 0.044783957 0.03154658
000280 98 c2 a4 3d 6f 58 32 3d 30 a1 2b bd bb e4 36 3d
       0.08044928 0.043541368 -0.041901767 0.044651728
000290 09 a0 27 bc 0b b3 23 3f ac d3 f2 3e 71 4f a0 3f
       -0.010231026 0.6394507 0.47427118 1.2524244
0002a0 8f 8e f0 bf b8 b0 0d 40 c6 40 26 40 3b 43 04 3f
       -1.8793505 2.213911 2.5977035 0.51665086
0002b0 c4 02 16 be f9 7f 2f c0 01 94 16 bf 3c de 8f bf
       -0.14649493 -2.7421858 -0.58819586 -1.1239696
0002c0 95 52 99 bf c9 d9 35 be 48 ca 52 3e 19 4c 81 bf
       -1.1978327 -0.1775886 0.20584977 -1.0101348
0002d0 6c f4 37 bf d1 0e 6a bf 34 8e c7 be 0b d0 60 3f
       -0.71857333 -0.9142886 -0.3897568 0.8781745
0002e0 5c 0b 1d 3f b3 e4 f2 3d 16 09 e0 3e 72 6d a4 be
       0.6134546 0.11860027 0.43756932 -0.3211475
0002f0 1f 36 b4 3f ec d1 7d bf 70 13 4e bf 67 9f e3 bf
       1.4079016 -0.9914844 -0.8049841 -1.7783021
000300 1c 78 91 bc c6 f3 23 be 09 e7 1e 3d dd 38 33 bd
       -0.017757468 -0.16010961 0.03879455 -0.0437554
000310 d4 17 92 bc bb e1 6f c0 a8 a7 18 3f bc ea 0e c0
       -0.017833628 -3.7481525 0.59630823 -2.233077
000320 42 d7 77 3e a0 f1 d7 3f 03 78 6f bf 55 b3 bf 3f
       0.24203208 1.6870613 -0.935425 1.4976603
000330 30 6e 3f 3f 63 26 fd 3e 9f 00 a9 3e 2d 7b 64 be
       0.7477751 0.4944335 0.33008286 -0.22312613
000340 c9 05 c7 3e c2 3f 60 be d9 4e 53 3e bb 9d 9d bf
       0.388716 -0.21899322 0.20635547 -1.231376
000350 af 73 22 bf e8 b1 98 3e fa ba c9 be f6 55 ae be
       -0.6345777 0.29823232 -0.39400464 -0.34049958
000360 66 17 39 bf ff 64 38 3e 7b 7c 97 bf de d2 41 3e
       -0.7230133 0.18007277 -1.1834863 0.18928096
000370 10 b9 54 3f e2 b7 cb bf 70 89 ee bf 15 71 8e bf
       0.8309488 -1.5915492 -1.8635693 -1.112826
000380 91 cb 08 3e eb d3 81 bc f6 83 0f bf 22 9f e3 3c
       0.13358904 -0.01584812 -0.5606073 0.027785841
000390 73 c3 50 bc c3 ab 2b bd a0 5f c0 3f b9 a9 a9 3e
       -0.012741911 -0.04191185 1.5029182 0.331373
0003a0 ff 41 5d 3e d9 1e 30 bf 50 3c fa be c2 81 82 3f
       0.21607207 -0.6879707 -0.4887414 1.0195849
0003b0 ec 06 00 40 fe 8e 08 bb 14 f0 d4 3d ef 02 25 bf
       2.0004225 -0.0020837183 0.10397354 -0.644576
0003c0 00 98 27 bf 05 69 ae be 3e c3 f8 3d eb ee f3 be
       -0.6546631 -0.340645 0.121466145 -0.47643217
0003d0 41 22 c5 be 60 da d3 be 63 7c f0 3d 3c 9c 91 bf
       -0.38502696 -0.41377544 0.11742475 -1.1375804
0003e0 dd 5b 0b 3f 04 89 c4 3e 91 4e b1 be 32 e4 50 be
       0.5443705 0.38385785 -0.34630254 -0.2039955
0003f0 5c f9 a0 be 19 82 b8 bd 98 aa 78 be 4c 57 39 be
       -0.31440246 -0.09009189 -0.24283826 -0.18099707

fc1.bias f4 [400]
000000 5f 8f 47 3d ab 54 1f 3e 65 c0 bb 3d 2a f1 ee 3c
       0.048720714 0.15559642 0.09167556 0.02916773
000010 70 64 f1 bd 9b 6d ee 3d 73 a9 04 38 28 73 6c 3d
       -0.11786735 0.11641999 3.1629064e-05 0.05772701
000020 e8 41 aa bd b7 10 14 be 03 05 1f be c9 90 56 bd
       -0.08313352 -0.14459501 -0.15529256 -0.05238417
000030 ad 81 04 be 0a 56 1a be a9 8a 2f 3e 2e f4 8d 3d
       -0.12940092 -0.15071884 0.17142738 0.06931339
000040 28 37 bd bc de c6 1d be ba 1f fd bd 18 38 28 be
       -0.02309759 -0.15407893 -0.12359567 -0.16427648
000050 5a 07 32 bd ef 90 fe 3d 86 45 bd bc 0a 2c 21 3d
       -0.043464042 0.12429988 -0.02310444 0.03934864
000060 e5 19 68 bc 69 2f da 3d ab 97 29 3e 75 34 90 bd
       -0.01416633 0.10653574 0.16561763 -0.070412554
000070 21 38 09 be db d8 d0 3d d9 d5 eb 3d cd 30 63 3c
       -0.13400318 0.10197612 0.115153976 0.0138666155
000080 5d a4 a0 bd cc 1d 2c bd cd cd cb 3d d9 d8 53 3d
       -0.0784385 -0.042020604 0.09951363 0.051720474
000090 0c 9f 77 bd 5a 5e 4b 3d 87 66 5d 3d e6 bd 4c bd
       -0.060454413 0.049650528 0.054052856 -0.04998579
0000a0 01 76 cc bd 28 b4 2e 3d d8 0b 2f 3d 85 81 2d 3e
       -0.09983445 0.04265228 0.042735904 0.16943939
0000b0 64 eb e4 bc 39 f0 d2 3c a0 09 1e 3d 3f a3 a0 3d
       -0.027944274 0.025749313 0.038583398 0.07843637
0000c0 b9 f6 a7 3d a2 f5 f6 bd 91 89 17 3e ca 42 0c 3d
       0.082013555 -0.120585695 0.14798571 0.034243383
0000d0 8d 50 32 3e 4b 73 09 be 28 0a 1e 3e 68 e1 02 3e
       0.1741354 -0.13422887 0.15433562 0.12781298
0000e0 01 2f 89 bd 2a d4 24 be d5 74 e8 3c 01 d9 d9 3d
       -0.066984184 -0.16096559 0.028376022 0.10637093
0000f0 31 79 b5 bd 2d 05 94 3d b2 31 df 3c c6 33 17 3e
       -0.08861006 0.0722755 0.027245376 0.14765844
000100 73 6b 2d 3e 20 6c a1 3d 75 85 f8 bc 16 04 6e bd
       0.1693552 0.07881951 -0.030337075 -0.058109365
000110 4f b2 f8 3d 72 ab c0 bd 6f e4 84 bd 2d 58 d0 bd
       0.12143385 -0.094077006 -0.06488883 -0.10173068
000120 a7 bf 31 be 62 b4 20 3e 36 14 e4 3d 55 3f 92 3d
       -0.17358266 0.1569381 0.111366674 0.07140986
000130 6a bc 03 3e 56 c5 fd 3d c3 1e f6 3d 67 ed e8 bd
       0.12864843 0.123911545 0.12017586 -0.11373406
000140 b1 75 e8 3d f2 c8 48 bc 82 1a 2b 3e c2 d4 1c 3e
       0.11350573 -0.01225494 0.1670933 0.15315536
000150 78 7d 1f 3d 18 11 c0 bd 98 39 28 3e 6d cc 30 be
       0.038938016 -0.093782604 0.1642822 -0.17265482
000160 a3 ba 98 bd 5a 51 54 3d c2 a0 a5 3c 22 24 07 be
       -0.07457473 0.051835395 0.020218257 -0.13197377
000170 31 b5 cf bd 70 50 09 3d 03 46 0a bd 71 4d 10 be
       -0.101419814 0.033523977 -0.033758175 -0.14092042
000180 97 86 ce 3d 6f 79 03 3e ae ec 8b bc 9a 57 b4 3d
       0.10084265 0.12839292 -0.017080631 0.08805771
000190 e8 32 13 3d 14 48 c6 3d d4 ff a6 3a 34 81 57 3d
       0.03593722 0.096817166 0.0012741038 0.052613452
0001a0 15 bf f7 3d 6c a8 5e bd 90 fe ff 3d 6b 22 47 3d
       0.12096993 -0.05435984 0.12499726 0.048616808
0001b0 7d 4c 10 be 61 c1 0d 3e cd 60 8b bd c1 66 2e be
       -0.14091678 0.138433 -0.06805573 -0.17031385
0001c0 e4 8b 34 bd 23 dc 2f be 8d 11 4c bd 79 29 30 bd
       -0.044078723 -0.17173819 -0.049821425 -0.0430083
0001d0 51 52 00 be 1f 19 12 3e b3 66 df 3d d5 de b3 3d
       -0.12531401 0.14267395 0.1090826 0.08782736
0001e0 05 97 24 3e c4 8c 90 bd 81 fb 88 3d 29 88 04 3e
       0.16073234 -0.07058099 0.066885956 0.12942566
0001f0 dc a7 0e 3e 25 ee 80 3d b0 9a a2 3d f1 ab 20 3e
       0.13931221 0.062954225 0.079396605 0.1569059
000200 57 87 15 3e 39 7f 0e be 52 9c 12 3e 04 2a 8b bd
       0.1460241 -0.13915719 0.14317444 -0.06795123
000210 33 08 e8 3d 67 89 2d be 61 3d 1f 3e 0c f2 14 3e
       0.11329689 -0.16946946 0.15550758 0.14545459
000220 f6 ca 4b bd ec 9f 23 3e 8f 51 0f 3d 79 9e eb bd
       -0.049754106 0.15978974 0.03498989 -0.11504836
000230 00 67 8d 3d 01 0e e1 bd 2f 55 ba bd 53 64 19 3e
       0.06904411 -0.10988999 -0.09098279 0.14979677
000240 7f 58 a5 3b b9 57 c3 bd c1 5a 2a be 79 c1 11 bc
       0.00504595 -0.09538216 -0.16636182 -0.008896225
000250 f6 d8 9e 3c ab 6a f4 bc 6a e5 04 3c 2a de 11 3e
       0.019390564 -0.02983602 0.008111337 0.14244905
000260 75 e9 22 be b3 8e 26 3d 47 df a7 bc d5 15 1d be
       -0.1590937 0.040663432 -0.02049221 -0.1534036
000270 af 5b 2d be 17 0e 04 bc 58 a7 2b be 9d 36 30 3e
       -0.16929506 -0.00806 -0.16763055 0.17208333
000280 99 62 18 be 64 6a b6 bb 42 97 90 bb e4 b9 d0 bd
       -0.14881362 -0.005566882 -0.0044125626 -0.10191706
000290 20 d6 26 3e d4 f9 cd bc 79 b9 89 bd 17 8d 10 3e
       0.1629262 -0.025143541 -0.06724829 0.14116322
0002a0 b4 04 69 3d 6c d9 56 bd 29 fc 2c be 59 b9 08 bd
       0.05688925 -0.052453443 -0.16893066 -0.033379886
0002b0 29 fc 2f bd 3f 1e 44 bd 5b c5 d2 3d 40 89 51 bc
       -0.042965088 -0.047880407 0.10291549 -0.012789071
0002c0 47 73 45 3d ea a7 11 3e b6 e4 47 3b 89 b7 27 3e
       0.04820564 0.1422421 0.0030501313 0.16378607
0002d0 49 19 96 3d 98 12 05 be ab a6 b2 3d f8 f3 93 bd
       0.073290415 -0.12995374 0.08723196 -0.07224268
0002e0 12 c0 0c 3e d9 8d 49 3d 1c 8d d7 bd 88 c7 d7 bd
       0.13745144 0.049207542 -0.10524961 -0.105361044
0002f0 0e e5 30 be f2 1b 2b be ba 7f e2 bd 52 0c 37 3d
       -0.17274877 -0.16709879 -0.11059518 0.044689484
000300 37 24 45 bd 46 57 0a 3d 60 39 18 be 4f a6 5d ba
       -0.04813024 0.033774637 -0.14865637 -0.0008455263
000310 fa 74 a9 bd 98 42 3a 3d 8d c8 f6 bd c9 37 ab 3d
       -0.08274265 0.045473665 -0.12049971 0.083602495
000320 54 93 95 bd b0 19 9d 3c dc 44 98 bd ab a4 17 3e
       -0.07303491 0.019177288 -0.07435009 0.1480891
000330 53 fe 87 3c 50 dc ab 3d da 8e 8e bd a6 96 0e 3e
       0.016600763 0.08391631 -0.069608405 0.13924655
000340 fc be 83 bd ab 42 e6 3d 68 62 2a 3e e8 b9 b3 bd
       -0.06432912 0.11243185 0.16639102 -0.08775693
000350 2c 1a 21 3d d1 0b 10 3d 4c 86 80 ba 34 82 9a 3d
       0.0393316 0.03516752 -0.0009805649 0.075443655
000360 52 e1 1d 3e 77 c0 73 ba 10 85 2e 3d f1 34 dd 3d
       0.15417984 -0.0009298394 0.042607367 0.108011134
000370 73 d4 13 be af 4a d2 3d e7 b0 c1 3b a4 5f 01 be
       -0.14436512 0.10268151 0.005910981 -0.1263414
000380 7c b7 92 3d 11 99 a3 bd e7 41 03 be 2b 00 6b bd
       0.07163903 -0.079881795 -0.12818108 -0.057373207
000390 bb e5 bc 3c bc 62 ce 3d 17 a9 9c bd 9d 28 15 3e
       0.023058763 0.10077426 -0.07649439 0.14566274
0003a0 7a 70 fd bd 4a 5c 02 be 1b 91 8b 3d 46 84 27 3e
       -0.12374969 -0.12730518 0.06814786 0.16359052
0003b0 c8 f4 06 3e 9f 39 01 3e 24 fe 2e 3c 55 7a 7d bd
       0.13179314 0.12619637 0.010680709 -0.061884243
0003c0 61 38 04 be 7e 7d fe bd 2f 0e 5c 3d c5 c7 42 bc
       -0.12912132 -0.124262795 0.053724464 -0.011888449
0003d0 fe 78 e0 bc d1 b2 0a bd e2 5d 47 ba d4 bd d0 bd
       -0.027401444 -0.03386194 -0.0007605237 -0.10192457
0003e0 82 b0 22 bd aa 79 12 3e 25 78 bd bd 27 e5 52 bc
       -0.039719112 0.14304224 -0.092514314 -0.012872017
0003f0 de ff 0c be 7a d4 8e bd 5e 5a 72 3d 82 74 99 3d
       -0.1376948 -0.069741204 0.059168212 0.07492925

bn1.weight f4 [400]
000000 71 d8 08 3f 33 60 8f 3f 94 9e 18 3f dd a5 60 3f
       0.53455263 1.1201233 0.5961697 0.8775309
000010 eb e8 4d 3b 48 fb 59 3f f6 32 2d 3f fd 8a 81 3f
       0.0031419348 0.8514905 0.67655885 1.0120541
000020 27 2e 4e 3f 85 32 43 3f 43 54 0c 3f 0b 95 b0 3e
       0.8053917 0.7624896 0.54816073 0.3448871
000030 e6 d9 a0 3e 7e ef 50 3f b7 22 cb 3e ee 6e 3a 3f
       0.31416243 0.81615436 0.39674923 0.72825515
000040 20 6e 3a 3b 25 81 34 3f 12 84 36 3f 86 6b e4 3b
       0.0028446987 0.7050956 0.71295273 0.0069708256
000050 c1 b5 5a 3f 7e 90 d6 3e 77 80 a8 3f 8a e1 44 3f
       0.85433584 0.41907114 1.3164204 0.76906645
000060 fb 68 b2 3f 10 e0 81 3f 46 c9 5f 3f c4 39 13 3f
       1.3938287 1.0146503 0.87416494 0.5751002
000070 4d 64 f7 3e 7e 82 18 3f 9b 28 54 3f 0b a1 a9 3e
       0.4831871 0.59574115 0.8287446 0.3313068
000080 95 03 74 3f b7 f9 9d 3f 77 65 28 3f 52 48 34 3f
       0.95317966 1.2341832 0.65779823 0.7042285
000090 41 14 34 3e 69 fb c3 3e 3e da 66 3f 42 54 3d 3f
       0.17585851 0.38277748 0.9017676 0.7395669
0000a0 09 c7 39 3f 96 1c 8d 3f 78 be 3f 3f 3b 05 d6 3e
       0.7256933 1.1024349 0.7490001 0.41800866
0000b0 b8 b9 8e 3f fb fd 20 3f 85 5d 08 3f eb 65 8a 3f
       1.1150427 0.62887543 0.532677 1.0812353
0000c0 dd 7d 8d 3f 6a 6e 85 3f 40 e0 37 3f 41 03 54 3f
       1.1054035 1.0424321 0.71826553 0.82817465
0000d0 62 0b 03 3f 2e f0 98 3e d1 f0 81 3f ff 11 32 3f
       0.51189244 0.29870743 1.0151616 0.6955871
0000e0 24 8b da 3e df c9 98 3e 7e a5 0a 3f 23 b5 70 3f
       0.4268428 0.29841515 0.5415877 0.9402639
0000f0 ce e5 b3 3f 24 d0 f7 3e 6f 6e 49 3f 0d 62 85 3f
       1.4054506 0.48400986 0.78684133 1.0420548
000100 02 b6 4e 3f b4 2c 2d 3f 76 7b 5b 3f 3a 2d 00 3f
       0.8074647 0.67646337 0.8573526 0.5006901
000110 2b da 8d 3f b9 6d 6f 3f 81 12 e5 3e 12 77 25 3f
       1.1082205 0.935268 0.4474068 0.6463481
000120 38 02 58 3e 26 fc 8a 3f 9a 0d 7c 3f 3c b2 37 3f
       0.21094596 1.08582 0.98458254 0.7175634
000130 50 f8 23 3f f0 c7 5d 3f 9b 58 57 3e 80 08 37 3f
       0.6405077 0.86633205 0.21029894 0.71497345
000140 77 87 74 3f e0 1d 7c 3f de b0 35 3e 7b 1d 6a 3e
       0.955192 0.98483086 0.1774325 0.22862808
000150 e5 63 dc 3e f1 15 a1 3b 43 a3 67 3f d6 82 64 3f
       0.43044963 0.0049159457 0.9048349 0.8926214
000160 58 9c 2f 3f ac 3f 1f 3f 13 f3 81 3f fe 00 1d 3f
       0.68597937 0.6220653 1.0152305 0.6132964
000170 ea 20 fe 3e 2a 67 85 3f 3c 13 85 3f 08 df 01 3f
       0.49634486 1.0422108 1.0396495 0.50730944
000180 9a ec 86 3f d4 b6 7f 3f ee 6a b4 3f 04 54 87 3f
       1.0540955 0.9988835 1.4095132 1.0572515
000190 f0 b8 26 3f 2b 69 5a 3f cc 7d 32 3e 8f 81 1a 3f
       0.6512594 0.85316724 0.174308 0.6035394
0001a0 b4 f9 88 3e a2 4e 19 3f 32 a9 da 3e 6d b3 0c 3f
       0.26753008 0.5988561 0.4270721 0.5496128
0001b0 7a 32 a1 3f 61 c9 8a 3f 92 7a 3c 3f a7 29 79 3f
       1.2593529 1.0842706 0.7362453 0.9732918
0001c0 20 a4 28 3f b7 0a 79 3f a7 54 84 3f 15 b8 42 3f
       0.65875435 0.97281975 1.0338334 0.76062137
0001d0 6b 45 3c 3f 14 cc 80 3f 4a 86 12 3f fa d2 3f 3f
       0.73543423 1.006228 0.5723616 0.749313
0001e0 c9 5f 74 3f 48 39 77 3e 1f 38 96 3f c4 6b 7c 3f
       0.95458657 0.24142945 1.1735877 0.9860194
0001f0 b3 58 40 3f d2 14 7d 3e f1 cb a8 3e a6 4b 50 3f
       0.75135344 0.24714974 0.32968095 0.8136543
000200 4a 40 60 3f fd f0 a6 3f 21 6e cd 3e c8 b8 17 3f
       0.875981 1.3042294 0.40123084 0.5926633
000210 23 9a 88 3f 7f 88 5a 3f 95 8a b2 3e 39 32 83 3f
       1.0672039 0.85364527 0.34871355 1.0249702
000220 5c 7c 30 3f 4b 2f 8f 3f 72 fe 55 3f 60 24 8f 3f
       0.6893976 1.1186308 0.8359138 1.1182976
000230 8d 42 5d 3f ae 3f a8 3f bc cf 33 3f da b3 49 3f
       0.86429673 1.3144433 0.7023885 0.78790057
000240 e9 9e 88 3f 66 5b 60 3f 79 c9 1e 3f d4 51 48 3f
       1.0673496 0.8763946 0.6202617 0.7824986
000250 22 48 38 3f e5 ef d4 3e 79 87 97 3e 71 c7 e4 3e
       0.71985066 0.41589275 0.29595545 0.44683412
000260 cc 24 22 3f 76 ef 22 3f bf 4d 90 3f 3d c7 47 3f
       0.633374 0.6364664 1.1273726 0.7803839
000270 9f 9d 0c 3f 11 e5 c9 3e 33 27 07 3f c2 e3 97 3f
       0.5492801 0.39432576 0.5279419 1.1866381
000280 2c bb b8 3f 98 89 0c 3f cd 95 0f 3f 6a e8 ea 3e
       1.443212 0.5489745 0.5608795 0.45880443
000290 a9 b8 65 3f e9 1a 29 3f 73 37 62 3f 61 e4 5b 3f
       0.89734894 0.66056687 0.8836586 0.85895354
0002a0 f0 af dc 3e b7 91 4f 3f f1 fd 55 3f 92 dc 2c 3f
       0.4310298 0.8108172 0.8359061 0.67524064
0002b0 d2 a2 3d 3f a2 6d dc 3e 5c 4e 33 3f e1 98 6e 3f
       0.7407657 0.43052393 0.7004144 0.93202025
0002c0 31 62 43 3f 6d bc 84 3f 31 ef 4e 3f b8 14 21 3f
       0.76321703 1.0370003 0.8083373 0.6292224
0002d0 eb 2e ff 3d 71 f9 80 3f d7 62 4a 3f fe 4f 97 3f
       0.12460121 1.0076123 0.7905707 1.1821287
0002e0 74 c6 03 3f 85 3b 42 3f 8a db 5f 3f 0f 2f 4b 3e
       0.5147469 0.7587207 0.87444365 0.1984217
0002f0 94 04 12 3f a9 f8 3d 3e 3c 7f 61 3f 6f 60 b3 3f
       0.57038236 0.18551888 0.8808477 1.4013804
000300 53 35 a6 3f 03 94 33 3f d0 ac a1 bb fa a7 64 3f
       1.2985023 0.7014772 -0.004933931 0.8931881
000310 4f 20 1c 3f 39 e9 0b 3f 6b e4 8c 3f d1 82 86 3f
       0.609868 0.54652745 1.1007208 1.0508672
000320 f8 dc 74 3f 03 98 3e 3f 85 b2 4a 3f 72 fd 48 3d
       0.9564967 0.744507 0.7917865 0.04906983
000330 8f f5 44 3f 93 08 2b 3f 78 6f 9d 3e 80 11 66 3f
       0.7693719 0.6680996 0.30749106 0.8987045
000340 68 16 1a 3f f6 98 86 3f 7a f5 a4 3f bb 9b 3f 3f
       0.6019044 1.051543 1.2887414 0.74847
000350 22 c2 15 3f 96 1c 82 3f 8d ba bb 3f 7a 89 15 3f
       0.5849935 1.0164974 1.4666306 0.584129
000360 ec 35 1a 3f 4c 95 00 3f 2c 1b 64 3f fd 31 2c 3f
       0.6023853 0.5022781 0.8910396 0.67263776
000370 0a 2a 2f 3f 01 bf 2f 3f f5 63 50 3f 4f d0 d1 3e
       0.6842352 0.68650824 0.8140252 0.4097924
000380 d3 b1 c2 3e 0c c0 6a 3f cd f6 66 3f 91 51 22 3f
       0.38026294 0.9169929 0.9022034 0.6340571
000390 0c 87 94 3f 3d 9d 8b 3f 18 e1 21 3f 54 a3 31 3f
       1.1603713 1.090736 0.6323409 0.69389844
0003a0 aa 3d bc 3e 23 3b da ba 79 31 37 3f 9c 73 22 3f
       0.36765796 -0.0016649704 0.71559864 0.63457656
0003b0 17 7a 77 3f c2 5d 5e 3f 6e 20 1a 3f 1a 7e 59 3e
       0.9667067 0.86861813 0.60205734 0.2123951
0003c0 67 69 c8 3f e7 96 25 3f 29 ba 39 3f e2 a3 7d 3f
       1.5657166 0.64683384 0.7254968 0.9907819
0003d0 2a 92 ff 3e 44 d4 0a 3f 64 63 b9 3e 4a a5 4f 3f
       0.49916202 0.5423014 0.36208642 0.81111586
0003e0 3c 50 b4 3e 15 6f 41 3f 13 63 1f 3f 99 3f 33 3f
       0.35217464 0.7556012 0.6226055 0.7001892
0003f0 f4 e8 78 3e f5 e2 2a 3f 5b 63 6d 3f a8 a1 80 3f
       0.24307615 0.6675256 0.9272973 1.0049334

bn1.bias f4 [400]
000000 00 45 ec be 6e 48 77 bf 19 8c 06 3d 8c 15 52 bf
       -0.46146393 -0.96594894 0.03284845 -0.8206413
000010 61 92 b1 bd ce d7 9c bf 11 4d a9 bf 1c 33 70 bd
       -0.08670498 -1.2253358 -1.3226644 -0.05864249
000020 21 f7 95 bf 61 e7 90 bf 80 91 29 bf c4 df a0 bf
       -1.1716043 -1.1320611 -0.6623764 -1.2568288
000030 65 bb 5a bf 49 89 29 bf 3e da c4 bf 54 ac 82 bf
       -0.8544219 -0.66225106 -1.5379102 -1.020884
000040 c5 97 c2 bc f5 97 44 bf 60 6f cb 3e a2 d3 8e bd
       -0.02375401 -0.7679437 0.3973341 -0.069739595
000050 11 36 23 bf 2b f9 8a bf ef fa f7 bf ce db 86 bf
       -0.63754374 -1.085729 -1.9373454 -1.0535829
000060 15 87 4e bf f8 cd 83 bf 88 13 a4 be d4 e5 41 bf
       -0.8067487 -1.0297232 -0.3204615 -0.75741315
000070 f5 12 71 bf 41 69 42 be 1d d7 6e bf c7 f6 af bf
       -0.9416955 -0.18985464 -0.93296987 -1.3747185
000080 e6 3c ab bf 7e 20 53 bf 67 55 ec 3c 3f a1 e4 bf
       -1.337796 -0.82471454 0.028849317 -1.7861708
000090 00 e9 3c bf c9 56 d7 bd 15 f5 c2 be 84 57 2d bf
       -0.7379303 -0.105146 -0.38077608 -0.67711663
0000a0 06 36 4c bf 2e 21 ab bf c5 df 72 bf 40 cc a6 bf
       -0.79769933 -1.3369501 -0.94872695 -1.3031082
0000b0 8d 7d b9 bf c2 bc cb be 2c 11 0a bf 5d 79 85 bf
       -1.449144 -0.39792448 -0.5393245 -1.0427662
0000c0 db e9 03 c0 e4 51 88 bf 58 49 82 bf ab 6f 85 bf
       -2.0611484 -1.0649991 -1.0178633 -1.0424703
0000d0 4b 64 ac be 71 a9 b2 bf df 05 27 bf ad 92 79 bf
       -0.33670267 -1.395796 -0.65243334 -0.97489434
0000e0 50 d1 a9 bf 68 cc 46 bf 2a 91 95 bf 61 70 7d bf
       -1.3267002 -0.7765565 -1.1684926 -0.989996
0000f0 62 86 9e bf 0c 50 d1 3e bb 43 bf bf 9b 25 08 bf
       -1.238476 0.40881383 -1.4942545 -0.5318238
000100 82 86 79 bf 03 a3 a4 bf 3f 84 86 bf 71 34 53 bf
       -0.9747087 -1.2862247 -1.0509108 -0.82501894
000110 b5 96 9f bf f0 d9 fe be 09 b2 6b bf 10 4d 52 bf
       -1.2467867 -0.49775648 -0.92068535 -0.8214884
000120 33 14 8e bf 3e 63 16 bf f7 a5 28 bf 68 97 8f bf
       -1.1099914 -0.5874518 -0.6587824 -1.121808
000130 c7 04 4a be f0 0d b6 bf 36 2c 63 bf 79 e8 1b bf
       -0.19728385 -1.4223003 -0.88739336 -0.609016
000140 32 04 4c bf 69 df 99 bf b4 f6 ac bf a8 0d 8e bf
       -0.796939 -1.2021304 -1.3512788 -1.1097918
000150 91 4b 29 bf 3e a4 e6 bc 2d ac b4 bf 5d c7 3b bf
       -0.6613093 -0.028154489 -1.4115044 -0.7335108
000160 23 72 50 bf 0e 1b 28 bf d0 9d 5e be 34 9e 5b bf
       -0.8142416 -0.6566628 -0.21739888 -0.85788274
000170 5b 69 af bf 2d 9e a5 bf 6b 44 55 bf 69 0c b0 bf
       -1.3704027 -1.2938896 -0.8330752 -1.3753787
000180 3c 79 af be 92 7f 7c bf be 2b e1 bf 00 67 09 bf
       -0.34272182 -0.98632157 -1.7591474 -0.5367279
000190 61 cc 9f bf b3 ac 8b bf 1f cd 9e bf 20 6e 96 bf
       -1.2484246 -1.0912079 -1.2406348 -1.1752357
0001a0 fa c7 97 bf e0 ea 79 3d 06 6e 8d bf 46 0e a7 be
       -1.1857903 0.06101501 -1.1049201 -0.32628077
0001b0 be 98 c3 bf e3 d6 8c bf 4b a7 56 bf f0 9f 4d bf
       -1.5280988 -1.1003078 -0.8384902 -0.8032217
0001c0 b0 02 a7 bf c3 de 30 bf 37 7a b8 bf 07 e8 94 bf
       -1.3047695 -0.6908991 -1.4412297 -1.1633309
0001d0 85 85 82 bf f8 3b 90 bf 85 4d 7b be e5 5e 35 bf
       -1.0196997 -1.1268301 -0.2454129 -0.7084792
0001e0 3b ac a8 bf 39 e4 97 bf 85 41 b8 bf 30 37 ec be
       -1.317756 -1.1866523 -1.4394995 -0.46135855
0001f0 5c e4 86 bf ae 05 be bf 28 e5 be bf 14 16 ce be
       -1.053844 -1.4845483 -1.4913683 -0.4025122
000200 2d b6 77 bf 5a a9 7f bf 9d 65 d2 bf 17 c6 2a bf
       -0.96762353 -0.99867785 -1.643726 -0.6670851
000210 3f 1e 81 bf 62 85 bd bf 87 e1 c5 bf 37 6e 8e bf
       -1.0087355 -1.480633 -1.545945 -1.1127385
000220 98 3a af 3e c7 f6 53 be 54 d0 f3 be 92 00 c2 bf
       0.3422439 -0.20699607 -0.4761988 -1.5156424
000230 39 49 15 bf c2 0c c4 bf 28 39 42 bf c3 96 9c bf
       -0.58314854 -1.5316393 -0.75868464 -1.2233509
000240 41 66 b1 bf 3d 8e 54 bf a0 8f 05 bf a2 b2 de be
       -1.385933 -0.8302954 -0.5217228 -0.4349566
000250 73 28 83 bd a5 c6 68 3e 12 0b ca be b7 79 5d bf
       -0.064041995 0.22732027 -0.3946157 -0.8651385
000260 dd 4a 34 be 27 cb 32 bf 2b a7 bb bf a8 57 2f bd
       -0.17606683 -0.69841236 -1.4660391 -0.042808205
000270 98 09 cb bf 0f 64 e8 be 7c 4f af bf b2 90 59 bf
       -1.5862303 -0.4538884 -1.3696132 -0.8498641
000280 d8 bc 99 bf e9 da 19 bf 8e e7 03 bf 88 35 a9 bf
       -1.2010756 -0.60099655 -0.515252 -1.3219461
000290 5d f9 79 bf b0 22 9a bf a1 01 93 be f5 00 a1 bf
       -0.97646123 -1.2041836 -0.2871218 -1.2578417
0002a0 34 44 e2 bf d0 57 96 bf c5 76 27 bf 5c 00 77 bf
       -1.7677064 -1.1745548 -0.654156 -0.96484923
0002b0 75 75 f5 be ba 97 f3 bf 34 29 49 bf aa 96 37 bf
       -0.47941175 -1.9030678 -0.78578496 -0.7171427
0002c0 ba ea b2 be 30 f2 8e bf bf 58 19 bf a3 32 b5 bf
       -0.34944707 -1.116766 -0.5990104 -1.4156078
0002d0 86 ad da be 9a 5c a8 bf 74 24 a7 bf 47 7a 4c bf
       -0.42710513 -1.315326 -1.3058 -0.7987408
0002e0 0f 20 21 bf e3 fc 89 bf 5e 77 b0 bf ff cd 82 bf
       -0.6293954 -1.07803 -1.3786428 -1.0219115
0002f0 54 c1 08 bf 6a 89 3f bf 56 77 11 bf 29 8e a0 bf
       -0.53419995 -0.7481905 -0.5682272 -1.2543384
000300 0a 91 a5 bf f0 ae 19 bf f1 5c 7a bd b6 f7 02 bf
       -1.2934887 -0.6003256 -0.061123792 -0.51159227
000310 bb 74 c2 bf 6d 56 46 bf 51 99 71 bf 2e 4a aa bf
       -1.5191873 -0.77475625 -0.9437457 -1.3303888
000320 2d 9b a2 bf bf 43 9b bf d3 7c 07 bf dd f7 7d be
       -1.2703606 -1.213005 -0.5292484 -0.24801584
000330 6a 0c 96 bf a5 4c 08 bf e5 53 b2 bf fc 22 8d bd
       -1.1722538 -0.5324195 -1.3931853 -0.06891438
000340 ea 1a 8c bf f6 40 a7 be 1a 8a ab bf 54 f4 a8 bf
       -1.0945714 -0.3266675 -1.340152 -1.3199563
000350 0e 1b 54 bf ac 07 9c bf c7 85 a9 bf bb 67 8b bf
       -0.8285378 -1.2189841 -1.3243951 -1.0891031
000360 94 ab a9 bf 03 d1 42 bf 90 a3 82 bf b2 69 48 bf
       -1.3255486 -0.76100177 -1.0206165 -0.7828628
000370 62 dd 8f bf c6 c9 43 bf bb b3 d6 be 6b c9 1d bf
       -1.1239436 -0.76479757 -0.41933998 -0.61635464
000380 9e 2c bd bf f3 f7 9c bf c6 fe 47 bf 03 3f ab be
       -1.4779241 -1.2263168 -0.7812313 -0.33446512
000390 12 02 2e bf 37 03 77 be 2f 96 82 bf a7 da a1 be
       -0.6797191 -0.2412232 -1.0202082 -0.3161213
0003a0 8e 5a 8b bf 74 17 5e bc 4d 60 94 bf 0a 6a fe be
       -1.088701 -0.013555396 -1.1591889 -0.49690276
0003b0 6a aa 5e bf 3b c6 65 be fb 6d 79 bf be a7 54 bf
       -0.8697878 -0.224389 -0.9743344 -0.83068454
0003c0 3f d3 3a 3e 1c 55 b5 bf e6 be c1 bf 77 bc 62 bf
       0.18244646 -1.4166598 -1.5136383 -0.88568825
0003d0 fd 10 bb bf 05 e2 2a bf 45 3a b7 bf 00 4e 97 bf
       -1.461456 -0.6675113 -1.4314657 -1.1820679
0003e0 89 35 a8 bf 6b 79 be bf 4a 29 81 bf 99 b6 81 bf
       -1.3141338 -1.4880804 -1.0090725 -1.0133849
0003f0 f8 30 be bf e3 73 c2 be 4f af 84 bf 71 ec a5 bf
       -1.4858694 -0.3797904 -1.0366 -1.2962781

bn1.running_mean f4 [400]
000000 13 b5 50 40 85 98 c5 3f c8 3a 52 3f 25 fb 87 3f
       3.261052 1.543717 0.82120943 1.0623518
000010 83 b8 4e bd 0f ba 47 be 43 64 0d 41 85 27 9f 3e
       -0.050468933 -0.1950457 8.836978 0.31084839
000020 d3 71 4f c0 4b cd 61 bf c9 1e b6 40 52 85 8c c0
       -3.2413223 -0.8820388 5.691258 -4.3912745
000030 92 3c 6e c0 c3 8b e8 c0 1b de 3d 40 cb cd e6 c0
       -3.722447 -7.2670608 2.9666812 -7.212621
000040 ce 49 85 be b1 42 ee 40 35 95 3f be 60 9d f4 bd
       -0.2603287 7.445641 -0.18709262 -0.119440794
000050 9b f5 54 3f c2 f3 50 c0 35 12 94 bf c3 6e 0b c1
       0.83187264 -3.2648778 -1.1568056 -8.714541
000060 de a4 c1 3f 98 77 99 c0 33 85 47 3e 2a 77 08 c0
       1.5128438 -4.795849 0.19484405 -2.1322732
000070 7f 00 28 c0 ad 98 b7 3f 68 0a 9e bf 4f 18 bc bf
       -2.6250303 1.4343468 -1.2346926 -1.4694918
000080 a2 76 1f c0 09 96 39 3f 7f d6 9c 40 5e 5f 76 c0
       -2.4916158 0.7249456 4.9011836 -3.8495708
000090 10 6f b2 bf 9e 2c 0a c0 a2 eb 5b 3d 20 aa 82 c0
       -1.3940144 -2.1589732 0.053691514 -4.083267
0000a0 13 3d a8 3f 17 fb 43 c0 88 4a 03 41 3f b4 e1 c0
       1.3143638 -3.0622003 8.205696 -7.0532527
0000b0 6b 96 45 c1 2f 77 f8 c0 2f 6f 66 bf e6 89 2f 40
       -12.349223 -7.764549 -0.900134 2.7427917
0000c0 c8 db b0 c0 e3 24 ca c0 a8 3c 21 40 31 c7 06 c1
       -5.526829 -6.317003 2.5193272 -8.423631
0000d0 39 a7 9a 40 85 07 01 c0 86 69 80 40 cc b9 e4 40
       4.832913 -2.016084 4.0128813 7.1476803
0000e0 51 eb 41 c0 fb fd a8 c0 91 7b 68 c1 45 d4 73 40
       -3.0299876 -5.2810035 -14.530168 3.809831
0000f0 f5 5e b1 bf 2e 15 03 40 c1 12 cc be 35 e9 b9 3f
       -1.3857104 2.0481677 -0.39858058 1.4524294
000100 8b 0b 67 c0 b3 b4 c9 c0 10 71 05 c0 51 b2 f0 40
       -3.6100795 -6.303308 -2.0850258 7.521767
000110 60 0f de bf 4b 79 98 3f 4b 62 f7 c0 bb 8f 08 c1
       -1.7348442 1.1912016 -7.7307487 -8.53509
000120 5a b6 a0 c0 e1 c8 f2 3f b0 8a a5 3f e9 13 c9 c0
       -5.0222597 1.8967553 1.2932949 -6.2836804
000130 a3 9a 32 c0 30 41 de 40 18 3c f3 bf 06 80 bc bf
       -2.7906883 6.9454575 -1.9002714 -1.472657
000140 08 69 da bf e1 bf b8 c0 64 37 fd c0 04 91 d1 c0
       -1.7063303 -5.7734227 -7.9130116 -6.548952
000150 16 66 22 c1 76 80 64 bd f5 b8 29 c1 b3 1d 39 c0
       -10.149923 -0.055786572 -10.607656 -2.8924377
000160 2e 8d d1 40 9c 21 6c c0 f7 09 1a 3f f1 7f a6 3f
       6.548484 -3.6895514 0.60171455 1.3007795
000170 d4 98 25 41 b7 07 a7 40 3f 32 b0 40 aa 1c e9 bf
       10.349812 5.2196918 5.5061336 -1.8211873
000180 53 49 8d bf 85 ec 02 c1 9c eb 2d bf e0 4c 4d 40
       -1.1038002 -8.182744 -0.67937636 3.207817
000190 f7 41 9e c0 e2 41 09 41 c5 62 01 c0 16 11 4d c0
       -4.9455523 8.578585 -2.0216534 -3.2041678
0001a0 2d 94 d1 bf 37 92 f6 be 65 6a 72 3f 95 a0 b9 40
       -1.6373345 -0.48158428 0.94693595 5.8008523
0001b0 e3 f4 bc 3e eb e7 01 c1 03 d0 53 40 2f 0d 90 c0
       0.36905584 -8.119121 3.309571 -4.5016093
0001c0 3f c0 f4 c0 36 c4 91 bf 5a 68 9e c0 6b cb 3e 40
       -7.6484675 -1.1388004 -4.950238 2.9811656
0001d0 5b d0 d8 bf 39 6b ae 3e c2 cf e0 3f 4b b1 7f 40
       -1.6938585 0.3406618 1.7563403 3.995196
0001e0 57 72 2b 40 b0 b2 0f 40 7e 04 2d c0 a9 8d ea c0
       2.6788538 2.2452812 -2.7033992 -7.3297925
0001f0 59 50 11 c0 84 b4 d9 c0 f5 e4 d7 bf 45 9c 14 40
       -2.270529 -6.8032856 -1.6866747 2.322038
000200 ff 23 08 bf fe ce ec bf 5b e7 cd 3d cf 07 3f c0
       -0.53179926 -1.8500669 0.10053893 -2.9848516
000210 d9 7f 98 c0 30 77 45 be 26 a0 19 bf c9 e5 ed bf
       -4.7656064 -0.19283748 -0.6000999 -1.858575
000220 0c bc e7 40 19 a1 cb bf b9 a7 3c 40 48 86 36 40
       7.241705 -1.5908538 2.947737 2.8519459
000230 06 08 77 c0 7c ed bf c0 8d 74 32 c0 db 17 9e 40
       -3.8598647 -5.99774 -2.7883637 4.940412
000240 2e ce b9 bf 79 09 92 40 92 f3 ae 3f fc 4a f8 40
       -1.4516046 4.5636563 1.3668082 7.7591534
000250 b4 5e 3b 40 bd 29 a3 c0 95 21 be bf 8d 57 5e c0
       2.9276552 -5.098845 -1.4853998 -3.4740937
000260 6b 6f b1 be e8 b5 2f c0 6e e5 4b c0 df be 92 bd
       -0.34655318 -2.7454777 -3.1858783 -0.07165312
000270 a2 2a b4 c0 a9 4a a9 40 35 68 2f c0 d6 62 20 c0
       -5.630204 5.290364 -2.7407353 -2.5060325
000280 a4 86 82 bf 98 5a 8a c0 ac ac 08 41 1d b1 8d c0
       -1.0197339 -4.323559 8.542156 -4.4278703
000290 7b 91 21 3f 50 1f 0c c1 12 d3 01 40 42 f5 b0 c0
       0.6311261 -8.757645 2.0285077 -5.5299387
0002a0 a7 22 b1 be 73 8c a1 c0 f6 6e 14 c0 5b f2 ad be
       -0.3459675 -5.0483947 -2.3192725 -0.33973965
0002b0 8d 56 8d bf 7c ba fb c0 eb fe bd c0 7b 55 b9 3f
       -1.1042038 -7.866514 -5.937368 1.4479212
0002c0 6e 3f 10 40 6e 1b ce bf dd b6 46 40 64 6e 05 c1
       2.2538714 -1.6102121 3.104911 -8.339451
0002d0 9a 36 d2 3f bb 9b 7b c0 fa 5c bf bf 8d 99 84 40
       1.6422913 -3.93138 -1.4950249 4.143744
0002e0 ba b0 11 c1 4b 67 00 40 05 b0 1d 40 b4 e1 e5 3f
       -9.105646 2.0063045 2.4638684 1.7959504
0002f0 02 d1 78 be 48 90 01 40 c5 f6 8b 3e c3 00 62 40
       -0.2429848 2.0244312 0.27336708 3.5312965
000300 b9 f5 e0 bf 26 a8 9b 40 a8 2a 90 bc b4 8d 1b 40
       -1.7574989 4.864276 -0.017598465 2.4305239
000310 b4 57 f8 be 88 ec 00 c1 dc f3 8d c0 19 a1 a7 c0
       -0.48504412 -8.057747 -4.436018 -5.2384152
000320 62 79 f7 40 1b 32 d2 c0 20 74 a5 c0 c6 ea 56 40
       7.733567 -6.5686164 -5.1704254 3.3580794
000330 27 d3 d8 c0 f2 64 4b bf 50 84 b7 c0 a1 f1 00 40
       -6.7757754 -0.79450905 -5.7349014 2.0147479
000340 75 32 84 40 2f 1a 23 bf d2 f1 b8 3e 5d 8b eb c0
       4.1311593 -0.6371183 0.36121994 -7.360762
000350 3d 6a b1 c0 89 93 38 3f 9b 86 99 c0 55 ab 9b 40
       -5.5442185 0.7210012 -4.7976813 4.8646646
000360 03 00 0d c1 4f ee 90 40 78 83 9a bf a4 c5 bc bf
       -8.812503 4.5290904 -1.2071371 -1.4747815
000370 98 76 a4 c0 1f a9 f8 3f 5f a1 0c 40 b0 0a 09 c0
       -5.139477 1.9426612 2.1973493 -2.1412773
000380 fd 7b 6f 40 75 45 01 c1 32 aa a5 c0 03 3c 26 40
       3.7419426 -8.079457 -5.177026 2.5974128
000390 93 46 97 40 43 e4 a9 40 17 ba 0a 40 e2 47 7c 40
       4.727365 5.309114 2.167608 3.9418874
0003a0 c1 18 64 3f 3e b8 0e be 4b 97 89 c0 f1 41 cc be
       0.8910027 -0.1393747 -4.2997184 -0.3989406
0003b0 2a b0 81 c0 f8 7e 45 3f 87 76 ab be 6c e6 cb 3e
       -4.0527544 0.77146864 -0.33488867 0.39824235
0003c0 1e ff bd 3f fa 0e f2 c0 d0 8c 85 c0 b3 14 a1 c0
       1.484348 -7.564328 -4.173439 -5.0337768
0003d0 18 ab 98 c0 f8 a3 00 bf c7 69 64 c0 60 23 27 c1
       -4.7708855 -0.50250196 -3.5689561 -10.446136
0003e0 28 fb 02 c1 58 b0 5f c0 8b 01 16 c1 64 1a 1c c0
       -8.186317 -3.4951382 -9.375377 -2.4391108
0003f0 32 05 65 c0 07 aa c1 c0 63 23 20 c0 ae 3d a1 c0
       -3.578442 -6.0520053 -2.5021598 -5.0387793

bn1.running_var f4 [400]
000000 e1 9f f3 42 b8 70 b2 42 41 63 d8 42 16 b2 77 42
       121.81226 89.22015 108.193855 61.923912
000010 41 d0 24 3f cb 08 c1 42 d5 0e 84 42 37 54 a7 42
       0.6438027 96.51717 66.02897 83.66448
000020 9b 9f 80 41 75 7a 36 43 e2 cb 21 43 37 1f 44 43
       16.077932 182.47835 161.79642 196.12193
000030 1e 53 97 42 93 e1 3a 43 99 3c 08 43 78 16 e6 42
       75.66234 186.88115 136.23671 115.043884
000040 19 b1 b0 3d 95 a2 ff 41 1a 34 ed 40 50 ee 6b 3f
       0.08627529 31.954386 7.41261 0.9216051
000050 d8 f7 5c 42 e7 d5 98 41 63 e9 21 43 50 49 8f 42
       55.242035 19.104445 161.91167 71.64319
000060 6f b5 c6 41 c8 14 80 42 4b ac 80 42 5e 61 62 42
       24.83859 64.04059 64.33651 56.595085
000070 e4 30 69 42 1c 78 91 40 52 c5 44 42 d1 8e 00 43
       58.297745 4.545912 49.192696 128.55788
000080 bc 40 93 42 5a af ac 42 de 5f c3 41 26 ef 0c 43
       73.626434 86.34248 24.42181 140.93417
000090 d4 49 2b 43 42 81 23 42 14 8a 2e 42 72 0a e2 42
       171.28839 40.87623 43.634842 113.0204
0000a0 63 f5 12 43 f2 64 5a 42 19 5a 04 43 e9 6c f7 42
       146.95854 54.59858 132.35194 123.712715
0000b0 be ee 17 43 f0 a0 b9 41 19 77 16 43 22 c1 39 43
       151.93259 23.203583 150.46523 185.75443
0000c0 ee b8 4e 42 9c 68 e5 41 30 b9 a9 42 04 4a 03 43
       51.680595 28.676079 84.861694 131.28912
0000d0 b3 d9 55 42 bf 2e 25 42 f8 b6 be 42 0d b0 3a 43
       53.462597 41.29565 95.35736 186.6877
0000e0 2e 95 b3 42 3e 11 89 42 34 a7 59 42 11 97 06 43
       89.79137 68.533676 54.413284 134.5901
0000f0 79 aa ea 41 1e 38 e1 42 61 d3 8d 42 3c 2f e7 42
       29.333239 112.609604 70.91285 115.592255
000100 31 c1 ed 41 1e f9 60 42 ff 0c 31 43 8f 1e a2 42
       29.719332 56.24328 177.05077 81.059685
000110 33 10 4d 41 e1 73 26 42 86 0d 33 42 f8 ed b5 41
       12.816455 41.613163 44.763206 22.741196
000120 41 14 44 42 41 cf 9e 41 0b 54 c8 41 81 c3 09 43
       49.01978 19.851198 25.041037 137.76369
000130 81 ef e4 42 84 f2 ba 42 ad 69 8e 42 f1 82 0f 43
       114.46778 93.47366 71.2064 143.51149
000140 bb a9 dd 42 5f f8 f5 42 8d bf 05 42 6e 3c 71 42
       110.831505 122.9851 33.43706 60.309013
000150 f6 72 82 42 9c f4 e6 3e 61 11 62 42 68 22 29 42
       65.22453 0.45108497 56.51697 42.2836
000160 86 4f c0 42 cc e5 2b 41 c5 3b 95 42 c1 b6 4d 42
       96.15532 10.743603 74.61674 51.42847
000170 bd 25 15 43 41 35 00 43 52 0b ad 41 60 47 93 42
       149.14742 128.20802 21.630527 73.639404
000180 98 65 ab 42 ff 55 78 43 cf a3 9d 42 48 d7 28 42
       85.698425 248.33592 78.81994 42.210236
000190 af ca d7 42 62 1e d9 42 0f 53 b2 41 70 da 07 42
       107.89587 108.55934 22.290556 33.963318
0001a0 bc 01 37 42 ab cf 9b 42 2b 2e 15 42 82 e4 43 43
       45.751694 77.9056 37.295086 195.89261
0001b0 ce b5 0b 43 12 36 63 42 f6 42 1b 43 a5 ea d2 42
       139.71017 56.802803 155.26157 105.45829
0001c0 4b 09 fb 42 71 f9 28 42 f2 5a 95 42 67 ca 0d 43
       125.51815 42.243595 74.67763 141.79063
0001d0 63 7b 12 43 9e d2 b0 41 37 65 22 42 91 1f 61 43
       146.48198 22.10284 40.598843 225.1233
0001e0 0b b1 a1 43 ab fc bf 42 4c 05 89 43 55 88 19 42
       323.38315 95.99349 274.04138 38.383137
0001f0 1a 16 8b 42 f1 e0 dc 41 db 79 8b 42 73 a4 08 42
       69.54317 27.609835 69.738 34.160595
000200 18 af 03 42 86 df 05 42 32 ff 21 43 48 38 4f 42
       32.92099 33.468285 161.99686 51.804962
000210 56 8d 29 43 ee 06 8d 42 56 99 3a 42 c5 77 13 43
       169.5521 70.513535 46.649742 147.46785
000220 a3 e0 f5 41 ba 7b d1 40 ed 9b 97 41 96 6b e4 42
       30.734686 6.5463533 18.951136 114.21013
000230 c6 dc 81 41 d7 57 44 43 19 2a 3a 43 fe 45 a4 42
       16.2328 196.34312 186.16444 82.1367
000240 40 4b a8 41 1f da 6d 42 88 0c 64 42 bb 61 79 43
       21.036743 59.46301 57.012238 249.38176
000250 87 c3 4f 43 94 33 96 42 7e 77 09 43 68 26 b7 41
       207.76378 75.10074 137.46677 22.893753
000260 11 11 af 41 aa 7d 9a 41 db 93 17 43 06 47 7a 42
       21.883333 19.31136 151.57756 62.56936
000270 d1 65 0f 43 eb ad 67 42 8f 84 98 43 b3 5d 81 42
       143.39772 57.91984 305.0356 64.68301
000280 6f af a9 41 9d b3 9e 42 ef 6b 50 43 f7 16 a6 42
       21.21066 79.35081 208.42162 83.04485
000290 92 b0 07 42 b2 a2 ef 41 e5 f8 b9 42 2a cb 11 42
       33.922432 29.954441 92.98612 36.448402
0002a0 29 d0 8c 42 d2 bb 6f 43 52 f0 3e 42 1f 6c b0 42
       70.40656 239.73367 47.734688 88.211174
0002b0 58 67 c3 42 f2 cf b2 42 ea 77 68 41 d2 67 8c 41
       97.70184 89.40614 14.529276 17.550694
0002c0 83 c8 4e 42 6f 9b bc 41 60 34 10 43 cd b2 2e 42
       51.695812 23.575895 144.20459 43.67461
0002d0 b8 46 c7 42 03 b8 81 42 2d 68 34 43 03 9e 4d 43
       99.63812 64.8594 180.40694 205.61723
0002e0 bd c3 5e 43 a5 6f c3 42 ba 56 66 42 16 0c 60 42
       222.7646 97.718056 57.584694 56.011803
0002f0 fd bc bc 41 88 25 34 43 af e7 26 43 65 03 79 43
       23.59228 180.1466 166.90501 249.01326
000300 88 8e bd 41 9c 5d 58 43 19 e4 de 3e 5e 95 d5 42
       23.694595 216.36566 0.435334 106.79173
000310 6f ba 3c 42 97 81 c6 42 93 09 ae 41 44 c5 04 43
       47.182064 99.253105 21.754675 132.77057
000320 98 f7 32 42 0b d4 aa 42 2d 5c 04 42 8d f6 85 42
       44.74179 85.41415 33.090015 66.981544
000330 83 0e f9 42 48 09 ae 42 98 07 26 42 0b 0b b7 40
       124.52834 87.01813 41.507416 5.720098
000340 00 66 8f 42 e6 99 b0 40 fd 78 4a 42 ee 2b b8 42
       71.69922 5.5187864 50.618153 92.0858
000350 88 aa 1a 43 55 12 9d 42 02 41 ef 42 d3 35 3f 42
       154.66614 78.535805 119.62697 47.802563
000360 73 1a 85 42 f9 18 35 42 e9 30 b2 42 c4 92 88 42
       66.55166 45.274387 89.09553 68.28665
000370 58 ac 3c 42 7f 43 66 43 04 f1 53 42 5a ad ae 42
       47.168304 230.26366 52.985367 87.33858
000380 27 7e 74 42 63 b8 01 42 7c f3 9d 43 fb 76 bc 41
       61.123196 32.430065 315.90222 23.558096
000390 4d d3 a7 42 e0 3e 9f 42 d6 08 21 42 0c 54 79 42
       83.9127 79.6228 40.25863 62.332077
0003a0 45 e6 30 43 19 6b d0 3d c5 70 92 42 ca a5 77 42
       176.89949 0.10176677 73.22025 61.911903
0003b0 a1 45 bf 41 1a 23 90 42 f8 eb d2 42 a9 b9 41 43
       23.908998 72.06856 105.46088 193.72523
0003c0 f9 2e 1c 43 f6 72 5e 42 05 3c c9 42 14 3f d6 42
       156.18349 55.612267 100.617226 107.1232
0003d0 1e f4 68 43 72 d3 f6 41 12 5e 1b 42 ff d9 25 43
       232.95358 30.853245 38.841866 165.85155
0003e0 00 21 02 43 dc be bc 42 19 74 b8 42 cb 08 1e 42
       130.1289 94.37277 92.22675 39.508587
0003f0 af 1a 33 42 5a 34 e3 42 63 5b c2 41 7c 71 3c 42
       44.77606 113.60225 24.294622 47.110825

fc2.weight f4 [300, 400]
000000 64 6d 22 3f 0e 48 98 bf 8e aa 52 3e 50 17 a1 bf
       0.63448167 -1.1896989 0.20572874 -1.258524
000010 c3 18 01 3b 5d f0 a1 bf aa 98 66 bf b7 9c 41 3f
       0.0019698597 -1.2651478 -0.90076697 0.7562975
000020 49 35 78 bf b1 5a e1 be 58 a6 8a bf 1e 76 2d be
       -0.96956307 -0.44014505 -1.0832014 -0.1693959
000030 b1 41 ff bd a7 ca 36 bf d2 c5 ff 3e 5c f1 43 3f
       -0.124637015 -0.7140297 0.49955612 0.7654016
000040 a7 d1 0a 3d 7d 86 56 3f 91 bd 1d c0 27 9c e3 bc
       0.033891346 0.8379896 -2.4646952 -0.02778442
000050 cb 58 1f 3f 33 34 20 3f 09 af 03 c0 a3 f6 9a 3e
       0.6224486 0.6257965 -2.0575583 0.30266294
000060 0a c1 96 bf 92 8f 8d bf ae 24 d3 bd 8e f8 a7 bf
       -1.1777661 -1.1059439 -0.103097305 -1.3122728
000070 ff c0 61 bf 56 c7 91 bf 12 8f fa bd 32 92 9d 3e
       -0.88185114 -1.1388958 -0.1223432 0.307756
000080 ce c1 f4 be a6 ce e7 bf 61 b3 79 3e 66 8d 24 bf
       -0.4780411 -1.8109939 0.24384834 -0.64278257
000090 96 41 bc 3e 93 10 c3 bf 19 c6 2d c0 41 70 4e bf
       0.36768788 -1.5239433 -2.715216 -0.80640036
0000a0 fd 9a 92 bf 8c 2d ca bf b6 00 dc be a0 56 8d 3f
       -1.1453549 -1.579515 -0.42969292 1.1042061
0000b0 66 b0 72 3e 58 e1 e4 bf 68 6d 07 3f 47 d9 24 3f
       0.23700103 -1.788127 0.52901316 0.6439404
0000c0 83 91 51 3f 19 6d b4 bf 1a d3 fc 3e c8 89 6f be
       0.8186266 -1.4095794 0.49379808 -0.23392403
0000d0 52 ff 4d bf 84 00 13 bf 2a 94 ab 3d e5 06 92 3e
       -0.8046771 -0.5742266 0.083778694 0.28520885
0000e0 95 9e da be 70 0b 82 3f ec 23 fd 3e 6e 0b 7a 3f
       -0.42699113 1.015974 0.4944147 0.9767369
0000f0 73 03 3a c0 fb bb 27 bf 6b 66 e5 be 99 72 e4 3e
       -2.9064605 -0.6552121 -0.448047 0.4461868
000100 ff ca 37 bf 89 52 e5 be 64 9f 53 bc 8a fb f2 3e
       -0.7179412 -0.44789532 -0.01291642 0.47457534
000110 2c be 83 bf 55 ce 22 bd 81 ff 05 c0 8a cf de 3e
       -1.0292411 -0.039747555 -2.0937197 0.43517715
000120 5c 50 d3 3e 73 7e d7 bc 92 38 bc 3e 28 5d 76 be
       0.41272247 -0.026305413 0.3676191 -0.24058974
000130 40 9d 90 bf 23 53 2f 3d 27 47 26 be 56 3b 21 bf
       -1.1297989 0.042803895 -0.1623808 -0.62981164
000140 ad 5e bc 3f 0c 2a 0e 3f e6 1a ac 3d 84 69 5f be
       1.4716393 0.5553291 0.08403568 -0.21817595
000150 5d 6b 91 3f 76 9e cc ba d8 99 3c 3e 91 b3 99 3f
       1.136089 -0.001561119 0.18418062 1.2007924
000160 c4 13 31 3f 31 86 9f be 4f c2 b4 3f cb 5d ed be
       0.69170785 -0.31157067 1.4121798 -0.4636062
000170 d5 9e d3 3e f0 1c a5 bd 62 b8 12 3f f4 2b 8f 3d
       0.41332117 -0.0806216 0.57312596 0.06990805
000180 22 7b 69 3f 12 ff 58 3f 3e 53 26 c0 0b 82 85 bf
       0.9120351 0.84764206 -2.5988307 -1.0430311
000190 f8 f2 26 c0 f2 bb f4 bf c4 9a ee bd 67 20 4d bf
       -2.6085796 -1.9119856 -0.11650613 -0.8012757
0001a0 9b ec 54 3f 0a 42 1b 3f bc 79 56 3c ba b6 47 bf
       0.8317353 0.6064764 0.013090547 -0.78013194
0001b0 68 f1 53 3f 0e ed 9c bf 7b 75 46 3f 8f da 7d c0
       0.8279023 -1.2259843 0.7752301 -3.9664648
0001c0 db 4a 11 c0 6e c8 19 c0 7a 4e 4e 3f a2 50 c4 3f
       -2.2701938 -2.4028583 0.80588496 1.5337107
0001d0 53 50 c3 3f 1a 48 8d be 60 b1 0d 3e 80 9f 8b 3e
       1.5258888 -0.27594072 0.13837194 0.27270126
0001e0 a9 39 19 3f 23 42 a6 be c2 b2 37 bf 05 ea f3 be
       0.5985361 -0.32472333 -0.7175714 -0.4763948
0001f0 df 3a b0 be 4c ae 58 bf c2 a1 c4 be 44 b5 b6 3d
       -0.34419915 -0.84640956 -0.3840466 0.089212924
000200 02 e5 07 bd 8c 5b fe be e0 ce c1 3e d5 ec ff bf
       -0.033177383 -0.4967922 0.37853146 -1.999415
000210 6d 23 84 3c ef 87 78 bd 2d db 67 3f eb 98 9b 3e
       0.016130174 -0.06067651 0.9056881 0.30390105
000220 7f da a1 3e 72 56 03 bf a5 e8 85 bf fc 33 29 c0
       0.31612012 -0.5130378 -1.0461622 -2.6437979
000230 9d 4d 27 be cf 93 25 bf 83 6d 96 bf cf fd 3b 3d
       -0.16338201 -0.64678663 -1.175217 0.045896348
000240 b9 5b db bf 8a 9d d9 bf 45 77 31 bf 8c 11 5b be
       -1.7137367 -1.7001202 -0.69322616 -0.21393412
000250 0f fe 4b 3f 15 23 82 3f d0 3d 63 3f bd 34 0d bf
       0.7968454 1.0166956 0.88766193 -0.551586
000260 08 e7 db 3b 4b 68 6a be dc 67 5c 3e 8b 7f 7f bf
       0.0067108907 -0.22891347 0.21523994 -0.9980399
000270 75 8a a6 3f 2b ec 90 3f bc d0 94 bf 7b 07 0e bf
       1.3011004 1.1322073 -1.1626201 -0.55480164
000280 f2 85 85 bf 17 0a 8e bd 41 e1 54 bf 69 10 43 bd
       -1.0431502 -0.06935518 -0.8315621 -0.04762307
000290 ff cd 7f 3d 7d 14 82 bf db ae 30 bf 36 c0 93 bf
       0.062452313 -1.0162503 -0.6901681 -1.1543033
0002a0 83 8f e2 3e 6e 2a ad 3f 67 bb 54 3e 59 96 de be
       0.44250116 1.3528574 0.20774613 -0.4347408
0002b0 c7 31 b9 bf 55 7b b1 3e 15 e2 89 3d 05 e3 18 bf
       -1.4468316 0.34664407 0.06732575 -0.59721404
0002c0 2d dc 58 c0 21 b5 ce bf be 11 8e bf a2 0e 45 be
       -3.3884385 -1.6149026 -1.1099164 -0.19243863
0002d0 a3 03 cc 3e 93 bc 0c c0 82 d6 a8 bf a0 37 d6 3e
       0.39846525 -2.1990097 -1.3190463 0.41839314
0002e0 95 8e 96 bf e1 be 1e be e1 ca 99 bf 9d de 78 bf
       -1.1762263 -0.15502502 -1.2015039 -0.9721468
0002f0 8d ac c4 bf 7a 56 e1 bf 61 43 95 bf dc 31 2c 3f
       -1.5365158 -1.7604516 -1.1661187 0.6726358
000300 41 b1 d8 3c 97 a0 f2 be 9b f2 16 bd 72 5d de 3e
       0.026451709 -0.47388145 -0.03685246 0.43430668
000310 f1 9e 10 c0 b6 4c 83 bf 50 07 ce bf 32 4a 60 3f
       -2.259701 -1.0257785 -1.6095982 0.87613213
000320 59 24 41 bf f7 54 17 bf 64 82 31 bf b7 07 a3 bd
       -0.7544609 -0.5911402 -0.69339585 -0.07960456
000330 24 13 fc bf 91 65 4f bf e7 15 29 3f 3a fb 89 3d
       -1.9693341 -0.81014353 0.66049045 0.06737371
000340 78 7e 08 bf c8 d9 e8 bf 2d 2b ed bf 31 4a 7b bf
       -0.53317976 -1.8191462 -1.8528801 -0.9816008
000350 07 58 c3 3f bf aa 59 bf 94 73 5d c0 18 91 ab 3e
       1.5261239 -0.8502616 -3.4601793 0.33509135
000360 4a 02 00 c0 43 2c ae be 63 94 94 3e 85 fb dd bf
       -2.0001397 -0.34018144 0.2901946 -1.7342383
000370 b3 6f 6d 3e ef 67 78 3f 79 a4 9c bf c6 cf 0a 3f
       0.23187141 0.9703359 -1.2237693 0.5422329
000380 03 54 b4 bf fb b3 85 bf 83 ef a7 3f 2f 3d 22 bf
       -1.4088138 -1.0445551 1.3119968 -0.6337461
000390 62 37 2f 3e cf 69 a7 3f 9c 79 8d bf cd 21 9b 3f
       0.1711097 1.3079165 -1.1052737 1.211969
0003a0 4e 03 49 bf 2e 2b 31 3d e6 3b ae bf b6 ad 01 3f
       -0.7852067 0.04325407 -1.361203 0.50655687
0003b0 41 03 df bf 34 83 b2 bf 8e 9a 93 3f 5e bd 8b 3f
       -1.7422868 -1.394629 1.1531541 1.0917165
0003c0 67 a7 7a c0 c0 37 a7 3c f4 93 05 c0 73 33 f5 be
       -3.9164674 0.020412326 -2.0871553 -0.47890815
0003d0 58 ca ea bd f7 47 95 be dc 9b 06 3f 82 91 cb bf
       -0.11464375 -0.29156467 0.5258157 -1.590378
0003e0 b2 c0 92 bf 81 00 74 3f e9 74 85 3b f9 35 4e bf
       -1.1465056 0.9531327 0.0040727747 -0.80551106
0003f0 21 a9 03 bf 4a 06 f9 bf 43 72 c0 be 24 55 d5 3f
       -0.51429945 -1.9455044 -0.37587175 1.6666608
