weights/critic_r2_ckpt.pth (torch_old, 549449 bytes, 9 tensors)

fcs1.weight f4 [400, 33]
000000 f1 fa b6 be c7 17 3d bf 5f 00 d8 3f 28 ae 48 bf
       -0.35738328 -0.73864406 1.6875113 -0.7839074
000010 27 6c ab bf 43 32 d8 be 8f 33 4a 3e ab 81 80 be
       -1.339238 -0.42225847 0.1974623 -0.2509893
000020 87 8c bb bf 15 55 3a bf 47 d8 89 3e 73 9d c9 3d
       -1.465226 -0.72786075 0.2692282 0.09844484
000030 48 7f a0 be 16 7b c9 3f 21 df 13 bf 82 2b d0 bf
       -0.31347108 1.5740688 -0.5776234 -1.6263278
000040 05 b7 0b bf 05 0a 8e 3f b0 1b b6 3e d6 2c 5e be
       -0.5457614 1.1096808 0.35568 -0.21696791
000050 fa 2c 9b 3e a6 9d 8f 3e 3a a2 b2 3e 45 43 97 3e
       0.30307752 0.28049964 0.34889394 0.2954351
000060 9e 48 3f be 02 ab 52 bf bf a5 71 3c d3 fa ec 3c
       -0.18680045 -0.8229219 0.01474899 0.028928196
000070 15 4e 82 3f 3d 42 17 bd f3 52 73 ba ca 47 c9 3c
       1.0180079 -0.036928404 -0.0009282075 0.024570365
000080 6f 67 a7 c0 6c 90 a1 be 2e ec 00 40 e7 48 e4 3e
       -5.231376 -0.31555498 2.0144153 0.4458687
000090 0c 6c 81 3f 71 8f a0 bf 79 b3 2e 40 60 15 3c 40
       1.0111098 -1.2543775 2.7297041 2.9388046
0000a0 52 88 e0 3f 7b b9 21 3f 76 ba 18 40 ec 28 dc bf
       1.7541602 0.63173646 2.3863807 -1.7199988
0000b0 af 6e dd be 98 43 8e 3f 80 fb 97 be 83 2a 37 3f
       -0.43248507 1.1114378 -0.29684067 0.7154924
0000c0 30 1c 17 be ee 1d 81 3f 5d 36 9f bf 8f 3d ca 3f
       -0.14756846 1.0087259 -1.2438465 1.5800036
0000d0 86 1d 0b c0 1c 77 01 3f 94 a6 84 3e 2d 38 23 3f
       -2.173677 0.5057237 0.2590834 0.6375759
0000e0 5f b0 10 3e 6a 58 96 3d 70 cb 5c bf 1b 2e c6 3f
       0.1412978 0.073410824 -0.8624792 1.548282
0000f0 32 99 e7 bc 24 80 15 3e 24 8d 59 3c 54 9e d2 3c
       -0.028271291 0.14599663 0.013278279 0.025710262
000100 70 70 96 bb 52 44 00 c0 aa f1 22 3e c6 df bd be
       -0.0045910403 -2.00417 0.159125 -0.37084788
000110 b7 1a 09 bf 68 f5 40 bf bd f2 c2 3e 3a 3a 17 c0
       -0.5355639 -0.7537446 0.3807582 -2.3629289
000120 fa 00 a4 be 6d 44 79 3e bd 82 46 bf 9e b4 9f bf
       -0.32031995 0.24342509 -0.7754324 -1.2476995
000130 92 6a b9 3a bb 4a 05 3f af 15 e9 bf ec a3 8b bf
       0.001414614 0.52067155 -1.8209742 -1.09094
000140 fc 48 14 40 c0 0c 00 bf 23 fa b3 be c1 e9 5c bf
       2.3169546 -0.50019455 -0.35151777 -0.8629418
000150 b1 a7 85 3f 8f b8 6b 3f 83 5d ac 39 4f b8 30 3f
       1.04418 0.9207849 0.00032876068 0.6903123
000160 08 10 01 be 59 28 77 be 72 7c 89 3f 76 0e d9 bd
       -0.12603772 -0.24136485 1.0741103 -0.10598461
000170 18 57 44 3f bd 03 18 3d 59 d1 f9 3f 4c 36 09 bd
       0.76695395 0.03711294 1.9517013 -0.033499047
000180 ed c8 88 bc c0 01 d4 bb be 69 05 c0 60 54 b6 bf
       -0.016697371 -0.006469935 -2.084579 -1.4244499
000190 18 d8 43 bf dc 2b 5d bf 91 84 84 3e f4 91 f6 bf
       -0.7650161 -0.8639505 0.2588239 -1.9263291
0001a0 04 ea d4 bf 87 ec 15 40 87 90 b9 3d 16 85 62 bd
       -1.6633916 2.3425615 0.090607695 -0.055302702
0001b0 ab c5 07 40 75 19 19 40 5d 69 9d be 8f 45 6b bf
       2.1214397 2.3921788 -0.30744448 -0.91903013
0001c0 9a 98 35 3f 59 b8 42 3f 98 1a 8e 3f 27 b3 b0 bf
       0.70935977 0.7606254 1.1101866 -1.3804673
0001d0 b2 ab 9b 3f db 4b 98 3f b2 53 46 be 7f 96 48 be
       1.2161772 1.1898149 -0.19367865 -0.1958866
0001e0 cc 00 20 3f ea dc da bd 8c ac 8b bf 9c 4c 38 3f
       0.62501216 -0.10686667 -1.0912032 0.71991897
0001f0 3d a0 3a 3e d7 26 99 bf e0 44 8a 3c 5b 98 2e 3f
       0.18225189 -1.1964978 0.016878545 0.68201226
000200 5d 5f dc bc b0 a8 f0 3c 2a 92 a7 bc f0 2d 21 bf
       -0.026900942 0.029377311 -0.020455439 -0.6296072
000210 85 b6 f5 bc 3d fb 7a bc 16 44 1b bc da 18 4a 3d
       -0.029994259 -0.015318689 -0.009476682 0.049340107
000220 d7 5a ae 3c 80 07 40 bd 7f f0 f6 3c 5f eb 88 bc
       0.02128355 -0.046882153 0.030143974 -0.016713796
000230 be 3c c1 3b ba a5 a5 bc a8 bf de bc 8a c5 64 3c
       0.0058971336 -0.020220626 -0.027190998 0.013963113
000240 7e 73 03 3d 8c 22 30 bd c1 67 32 bd 4a 1f 2c 3d
       0.032092564 -0.043001696 -0.04355598 0.042022027
000250 ed 74 3a 3d c0 0e e2 3b 55 c5 27 bd e8 56 2e bc
       0.045521665 0.006898731 -0.040959675 -0.010640837
000260 d4 2c 2c 3d 88 2a 15 bd 7f fc 09 bd 35 2b 02 bd
       0.04203494 -0.036417514 -0.033688065 -0.031779487
000270 10 e6 8c bc 16 b1 a7 bc 86 72 2e 3d 99 59 1b 3d
       -0.017199546 -0.020470183 0.042589687 0.037927244
000280 fa d6 25 bd 88 40 79 bc 44 fc 7f 3c 17 77 e3 bc
       -0.04048822 -0.015213139 0.01562411 -0.027766747
000290 9c bf 0d 3d d7 77 a0 3f cb 24 1e bf 2b df ab bf
       0.03460656 1.2536572 -0.6177489 -1.342748
0002a0 20 cc ec 3e 02 03 84 3f d7 b9 c7 bd 07 c1 39 be
       0.46249485 1.0313418 -0.09752243 -0.1814004
0002b0 3a 7a 8b 3e 02 8d e7 3e cb 3a 10 3f e5 dd d9 be
       0.2724169 0.45224768 0.5633971 -0.42552105
0002c0 4a e0 fb 3d 27 78 df 3e 5e ab 7e bf ce fe 5d be
       0.12298639 0.43646356 -0.99480236 -0.21679232
0002d0 4c 1a 04 40 13 59 02 3f 10 15 3b be 73 e6 1d bf
       2.064105 0.50917166 -0.18269753 -0.6167976
0002e0 2b 40 9f be 49 f1 41 be df a7 cf be 4c 53 43 3e
       -0.31103644 -0.18939699 -0.40557763 0.19074744
0002f0 1f f2 c5 be 5c 4c 9d 3d 7f bf 09 3f 88 34 56 3f
       -0.38661286 0.0768058 0.53807825 0.83673906
000300 6c d6 b9 3b dc 62 c5 bd 00 f1 c1 b9 14 b1 15 bc
       0.005671313 -0.096379966 -0.00036991388 -0.009136457
000310 21 49 2a 3d 59 99 ba 40 bf 66 13 be 37 22 3f bf
       0.041573647 5.831219 -0.14394663 -0.7466158
000320 4f 65 56 3f 09 6c 35 3f 9f 03 e1 be d7 dc 00 c0
       0.83748335 0.70867974 -0.43948075 -2.013479
000330 63 28 99 40 25 8d ce be b9 e4 83 3f 7c 0c 1a 3d
       4.78618 -0.4034206 1.0304176 0.037609562
000340 77 c3 ef be 0a 8a 5d bf f0 b1 6f 3f dc 4f 5d 3f
       -0.46828815 -0.86538756 0.93630886 0.8644998
000350 92 47 a7 3e d1 b9 5d 3d 76 3f 6c bf 76 b8 35 bf
       0.3267179 0.054132286 -0.92284334 -0.7098459
000360 96 4d 19 be 14 05 a0 3e 08 53 f8 3e 2b de bc be
       -0.14971003 0.31253874 0.48500848 -0.3688825
000370 c9 bc 55 bf 07 a9 84 3f 99 a9 70 3e e3 a4 57 bf
       -0.8349119 1.0364083 0.23502196 -0.8423597
000380 d9 ba 7a be 33 0f be 3b f1 04 11 3f 44 f2 71 3c
       -0.24485339 0.0058001517 0.56648165 0.014767233
000390 ce a9 36 bd 82 cf da 3c 19 a7 eb c0 e5 e1 cf 3e
       -0.044595532 0.026710276 -7.3641477 0.4060203
0003a0 7a 6a 29 c0 3a 4a ab bf 5c cc b1 bf 80 cd cb 3f
       -2.6471238 -1.3382027 -1.389049 1.5922089
0003b0 69 a4 10 c0 3a eb 84 3f 15 11 1a bf 18 da 01 c0
       -2.2600348 1.0384285 -0.60182315 -2.0289364
0003c0 c5 a1 d4 bc a4 82 cd be d0 1b 2c bf f0 c2 54 3e
       -0.025956044 -0.40138733 -0.6722994 0.20777488
0003d0 0a 43 9b 3e 8b 20 ce 3f 92 99 0d 3e a4 9e 2d 3f
       0.30324584 1.6103681 0.13828114 0.6782019
0003e0 79 50 2a 3e e9 cb a8 bf 4b d3 8e 3e 8b 10 09 3e
       0.1663226 -1.3187228 0.2789558 0.13385217
0003f0 d1 fe 24 be f6 11 93 bf 19 29 27 3f 42 5b a6 be
       -0.1611283 -1.1489856 0.65297085 -0.324915

fcs1.bias f4 [400]
000000 41 0e 48 3d ea c1 1e 3e ec 57 bc 3d 9e 27 ee 3c
       0.04884172 0.1550366 0.09196457 0.029071625
000010 70 64 f1 bd b8 d0 ec 3d f9 8f 9f 39 e6 04 6c 3d
       -0.11786735 0.115632474 0.0003043411 0.05762186
000020 0e 7f aa bd f4 7b 14 be 13 b7 1e be 71 d6 57 bd
       -0.08325015 -0.1450041 -0.15499525 -0.05269474
000030 6b 05 06 be 8f 57 1a be ff 99 2f 3e e5 c5 8c 3d
       -0.13088004 -0.15072463 0.17148589 0.06873683
000040 df 9a c7 bc dd 0c 1e be e5 86 fc bd 18 38 28 be
       -0.02436584 -0.15434594 -0.123304166 -0.16427648
000050 57 ae 31 bd c1 a0 fd 3d f6 b5 bb bc e7 7a 1e 3d
       -0.043379154 0.12384177 -0.022913914 0.038691428
000060 21 95 50 bc 3f 30 d8 3d 0a 80 2a 3e c7 fd 90 bd
       -0.012730868 0.10556077 0.16650406 -0.07079654
000070 86 36 09 be 74 46 d1 3d 72 17 ec 3d b3 f9 66 3c
       -0.13399705 0.10218516 0.11527909 0.014097619
000080 bc 3d a0 bd 34 42 29 bd 8b d0 ca 3d e0 06 54 3d
       -0.07824275 -0.0413229 0.09903058 0.05176437
000090 49 5c 78 bd 5e 5e 4a 3d 3c d1 5f 3d e3 65 4a bd
       -0.060634885 0.0494064 0.0546429 -0.049413573
0000a0 cb 72 cc bd 41 1a 2e 3d bf e5 2d 3d b1 c5 2c 3e
       -0.099828325 0.042505506 0.04245543 0.16872288
0000b0 88 7e ee bc 2c db d5 3c 05 f4 1c 3d 5d 61 a0 3d
       -0.02911307 0.026105486 0.038318653 0.078310706
0000c0 e4 75 a7 3d 28 36 fa bd 54 5e 17 3e cd 1d 0e 3d
       0.08176783 -0.12217361 0.14782077 0.03469639
0000d0 86 04 32 3e 2c bc 09 be a8 af 1e 3e ac 70 02 3e
       0.17384538 -0.13450688 0.15496695 0.12738293
0000e0 69 a3 87 bd ef b6 24 be b1 60 e7 3c 10 15 d9 3d
       -0.06622965 -0.16085409 0.028244348 0.105997205
0000f0 c7 39 b6 bd a4 91 93 3d 06 8e df 3c c5 5d 17 3e
       -0.08897739 0.07205513 0.027289402 0.14781864
000100 c0 bd 2d 3e 5e 23 a2 3d 20 04 f9 bc f3 0f 6e bd
       0.16966915 0.07916902 -0.030397475 -0.05812068
000110 48 90 fb 3d cd b5 c0 bd 11 cf 84 bd 50 dd ce bd
       0.12283379 -0.09409676 -0.06484807 -0.10100806
000120 71 b4 31 be c2 31 20 3e 9a e4 e3 3d 2d 48 92 3d
       -0.17353989 0.15643981 0.11127587 0.07142673
000130 c0 9a 03 3e c4 b0 fe 3d 7e 40 f7 3d 3f 4a e8 bd
       0.12852001 0.12436059 0.12072848 -0.11342286
000140 48 43 e8 3d 6a 45 45 bc 8e 21 2b 3e 57 13 1c 3e
       0.11340958 -0.012040475 0.16712019 0.15241753
000150 cc de 1f 3d 18 11 c0 bd eb a0 27 3e 5d eb 30 be
       0.039030835 -0.093782604 0.16369979 -0.17277284
000160 00 0c 99 bd 2b b0 54 3d 2a 0e a4 3c 4b dd 06 be
       -0.07472992 0.05192582 0.020026285 -0.13170354
000170 66 27 d1 bd e2 b0 0a 3d 96 a2 09 bd f4 b2 0f be
       -0.10212593 0.033860095 -0.03360232 -0.14033109
000180 a0 bd d0 3d 53 68 03 3e 59 63 86 bc 7d 1a b4 3d
       0.10192418 0.12832765 -0.016404795 0.08794115
000190 b9 1c 14 3d fb 0e c6 3d 94 d6 a4 3a ba ee 56 3d
       0.036160205 0.09670826 0.0012576156 0.05247376
0001a0 86 a0 f7 3d 34 ed 5c bd ab 3a 00 3e 45 dc 48 3d
       0.12091164 -0.053937152 0.1252238 0.04903819
0001b0 4c 48 10 be dd 53 0d 3e d2 e0 8b bd cd 36 2e be
       -0.14090079 0.13801523 -0.068299904 -0.17013092
0001c0 69 53 35 bd 99 03 30 be 26 5a 4c bd c6 2e 2f bd
       -0.044269 -0.17188872 -0.04989066 -0.042769216
0001d0 22 1c 00 be 2d b8 11 3e 32 d1 dd 3d c0 ca b4 3d
       -0.12510732 0.14230414 0.108309165 0.08827734
0001e0 09 c6 24 3e 24 b0 90 bd 50 63 89 3d 59 67 04 3e
       0.1609117 -0.07064846 0.067083955 0.12930049
0001f0 ef ba 0e 3e 1b 56 82 3d 9f b0 a4 3d af b6 20 3e
       0.13938497 0.063640796 0.080415 0.15694688
000200 54 0b 15 3e 2f 6e 0e be e5 d6 11 3e 46 08 8c bd
       0.14555103 -0.13909219 0.14242132 -0.068375155
000210 ae 20 e7 3d e4 fa 2d be 67 27 1f 3e 10 ce 14 3e
       0.1128553 -0.16990238 0.15542375 0.14531732
000220 69 ba 4c bd 85 02 23 3e 58 e7 0f 3d e1 52 eb bd
       -0.049982462 0.1591893 0.035132736 -0.11490417
000230 8a 7b 8c 3d 96 a4 de bd 93 aa b9 bd ef 4c 19 3e
       0.06859501 -0.10871236 -0.090657376 0.14970754
000240 b5 b4 b1 3b 1f e2 c1 bd 82 1e 2b be b6 f2 10 bc
       0.0054231533 -0.09466957 -0.16710857 -0.008846929
000250 14 e8 9f 3c 14 71 f9 bc 80 65 ff 3b 52 0e 12 3e
       0.019519843 -0.030449428 0.007794082 0.14263275
000260 a8 d1 22 be 61 ce 25 3d a7 10 a4 bc 60 9e 1c be
       -0.1590029 0.04048002 -0.020027472 -0.1529479
000270 27 3b 2d be 04 fd 03 bc 33 c2 2b be 35 24 30 3e
       -0.16917096 -0.008055929 -0.167733 0.17201312
000280 8e f0 18 be 43 c1 a6 bb 49 de 87 bb 19 92 d0 bd
       -0.14935514 -0.0050889566 -0.0041463715 -0.10184116
000290 8d a2 26 3e e0 3c cb bc 5c 6c 89 bd b6 42 10 3e
       0.16272946 -0.0248093 -0.06710121 0.14087948
0002a0 10 c9 63 3d d9 ef 57 bd 4d f6 2c be ab 78 0a bd
       0.05561167 -0.05271897 -0.16890831 -0.033806484
0002b0 28 6e 31 bd 0f a9 42 bd 00 95 d3 3d 8a 83 55 bc
       -0.043317944 -0.047524508 0.10331154 -0.01303185
0002c0 fb ca 43 3d 16 e8 10 3e a1 0c cf 3a f4 14 28 3e
       0.047801 0.14151034 0.001579661 0.16414243
0002d0 1a 1f 96 3d 90 5f 05 be 99 b0 b2 3d 0b 9f 93 bd
       0.07330151 -0.13024735 0.087250896 -0.072080694
0002e0 c5 ef 0c 3e f8 88 4b 3d 04 b7 d7 bd 49 ab d7 bd
       0.1376334 0.04969117 -0.10532954 -0.10530717
0002f0 76 f3 30 be c2 7f 2a be 6f 98 e2 bd df 46 36 3d
       -0.17280373 -0.16650298 -0.11064231 0.04450118
000300 3b 0b 4c bd b4 b3 09 3d 60 39 18 be 7b 67 9a ba
       -0.049815398 0.033618644 -0.14865637 -0.0011780107
000310 5d 9c a7 bd 1a da 39 3d c9 82 f7 bd e9 73 ab 3d
       -0.08184121 0.045374013 -0.12085492 0.083717175
000320 5a 18 95 bd 8c 74 9b 3c 9b a9 97 bd fe 06 18 3e
       -0.07280035 0.018976472 -0.074053966 0.14846417
000330 72 40 8b 3c b3 cd ac 3d cb 5f 8c bd 0b 44 0f 3e
       0.016998503 0.084376715 -0.068542086 0.139908
000340 65 f7 83 bd 4a 94 e3 3d b1 b2 2b 3e 23 30 b3 bd
       -0.06443671 0.11112268 0.16767384 -0.08749416
000350 3d b5 21 3d cd 4e 10 3d e5 1f 72 ba 6d 0f 9b 3d
       0.039479483 0.0352314 -0.000923632 0.075713016
000360 03 d0 1d 3e c9 69 b8 ba 0d 2a 2c 3d ad 16 dd 3d
       0.15411381 -0.0014069612 0.04203229 0.10795341
000370 25 ca 12 be 10 9b d3 3d 61 d5 b2 3b e0 b2 01 be
       -0.14334925 0.1033231 0.0054575657 -0.12665892
000380 0d ce 92 3d 5f 7a a2 bd 0c fc 02 be 6b 93 68 bd
       0.07168207 -0.07933497 -0.12791461 -0.056781214
000390 e7 6a bb 3c 4a 8d ce 3d 72 73 97 bd ba 32 15 3e
       0.022878123 0.100855425 -0.07395066 0.14570132
0003a0 7c 6a fd bd 4a 5c 02 be 49 47 8c 3d f3 4b 27 3e
       -0.12373826 -0.12730518 0.06849534 0.16337566
0003b0 bb ca 07 3e 4c 91 00 3e ee 1e 29 3c 8d 4d 7c bd
       0.1326093 0.12555426 0.010322316 -0.061597396
0003c0 24 16 05 be 8e a5 fe bd fb 87 5d 3d 95 66 4d bc
       -0.12996727 -0.12433921 0.05408476 -0.0125366645
0003d0 ea 28 e3 bc 2d 28 09 bd 27 3f 4f b9 2d 10 d1 bd
       -0.02772947 -0.03348558 -0.00019764584 -0.102081634
0003e0 45 c6 22 bd 62 72 12 3e 17 6b bd bd db bd 53 bc
       -0.039739866 0.14301446 -0.092489414 -0.012923683
0003f0 ae dc 0c be 44 95 8e bd ef 85 6f 3d 9f 22 9a 3d
       -0.13756058 -0.06962064 0.05847734 0.07526135

bn1.weight f4 [400]
000000 c8 cf fe 3e 0b 35 d1 3e 69 ff 55 3e 5f eb c8 3e
       0.497679 0.4086078 0.20898212 0.39242074
000010 c3 a1 3f ba ff fc c3 3e 52 27 cd 3e 61 2e c3 3e
       -0.0007310176 0.38278958 0.40069062 0.38121322
000020 1d d5 e3 3e 0c 5a b2 3e f9 ea b6 3e 7e 4d 95 3e
       0.4449853 0.34834325 0.35726145 0.29160684
000030 44 b4 bc 3e a0 fa 03 3f 8a 71 cb 3e 79 21 13 3f
       0.36856282 0.515543 0.3973506 0.5747295
000040 34 f0 0b 3f fb 4e 02 3f a1 15 0e 3f b7 90 2c b9
       0.54663396 0.50901765 0.55501753 -0.00016457109
000050 33 87 a0 3e 40 7c 87 3e 8f 18 66 3b 19 d5 c9 3e
       0.3135315 0.26461983 0.0035109853 0.39420393
000060 90 8f 90 3e 1f a0 0e 3f d4 0f 99 3e 37 89 65 3e
       0.2823453 0.55713075 0.29894888 0.22415625
000070 3f 63 b1 bb 86 fc cb 3e a4 38 eb 3e f9 33 d4 3e
       -0.0054134424 0.39841098 0.4594165 0.41445902
000080 ad be 3d 3e ab 09 55 3e 28 58 90 3e fa 77 74 3e
       0.18529768 0.2080447 0.28192258 0.23873892
000090 8e b5 b8 3e 85 9e 9e 3e 34 c9 1d 3f 46 54 03 3f
       0.36076015 0.30980316 0.61635137 0.51300466
0000a0 7f 15 f0 3e ec 04 c9 3e c1 ad 18 3e 21 2e c1 3e
       0.468914 0.39261568 0.14910032 0.37730506
0000b0 a7 ef b8 3e fc cf 04 3f de 22 08 3f 6b ae 0e 3f
       0.3612034 0.5187986 0.53178203 0.5573489
0000c0 17 8b 6a 3e 98 81 bd 3e 93 c6 e1 3e 49 02 c7 3e
       0.22904621 0.37012935 0.44096813 0.3886893
0000d0 ca 1f d9 3e 83 90 ef 3e 2e 09 04 3e 20 91 af 3e
       0.42407066 0.4678994 0.12894127 0.3429041
0000e0 15 1c e7 3e b9 d6 27 3f be 07 e4 3e da 56 a0 3e
       0.45138612 0.65562016 0.44537157 0.31316262
0000f0 07 f7 28 3e dc 0d d1 3e 44 c1 33 3e ca 7d a9 3e
       0.16500483 0.40830886 0.17554194 0.33103782
000100 65 2d 0d 3f 06 78 94 3e d6 94 e7 3e e0 63 cf 3e
       0.5514739 0.2899782 0.4523074 0.40505886
000110 61 20 0e 3e 2e 67 dc 3e a0 87 ff 3e 93 fe 43 3f
       0.13879539 0.4304747 0.4990816 0.76560324
000120 64 b1 24 3f c1 93 98 3e 4b a5 b2 3e a0 67 0a 3f
       0.64333177 0.29800227 0.34891734 0.5406437
000130 eb c1 b8 3e 56 ce 0a 3f dd a0 82 3e 37 fa e1 3e
       0.36085448 0.54221094 0.25513354 0.4413621
000140 20 a9 8b 3e 6f 83 0b 3f 6d c8 c3 3e 0e 8c b6 3e
       0.2727747 0.54497427 0.3823885 0.35653728
000150 4d 5c 22 3e 90 f2 c8 bb 2f 4f aa 3e 36 4a 13 3f
       0.15855522 -0.0061324313 0.33263537 0.5753511
000160 ff 7c 39 3e 2f af 9e 3e 56 3b 17 3f 77 e3 e0 3e
       0.18114088 0.3099303 0.59074914 0.43923542
000170 d6 68 d8 3e 17 e5 99 3e 88 ba 1c 3f 96 56 de 3e
       0.42267483 0.30057594 0.61222124 0.43425435
000180 73 5b 37 3e 2f 3c 1a 3e 30 a6 82 3e 81 ee a3 3e
       0.17905979 0.1506202 0.25517416 0.32017902
000190 d5 99 d0 3d 90 91 97 3e a8 77 3c 3e 24 20 02 3f
       0.10185591 0.29603243 0.1840502 0.5083029
0001a0 e4 87 97 3e 33 be a9 3d 6e 44 c1 3e 49 7a 89 3e
       0.29595864 0.08288231 0.3774752 0.2685111
0001b0 d1 dd 8f 3b 6f df 8b 3f 83 9b 68 3e eb d0 97 3e
       0.0043904562 1.0927562 0.22715573 0.2965158
0001c0 15 d3 15 3d b4 ca d9 3e 62 6c 62 3e 64 37 bf 3e
       0.036578257 0.42537463 0.22111657 0.37346947
0001d0 35 67 1b 3f fb a5 9b 3e 1c c0 20 3e 06 6a c7 3d
       0.60704356 0.3040007 0.15698284 0.09737019
0001e0 cb 93 f6 3e d6 0d 09 3f ee b7 c4 3e 68 ed 2a 3f
       0.48159632 0.53536737 0.38421577 0.66768503
0001f0 d1 88 70 3e 52 0d 6e 3e e3 7f 40 3f 34 a0 c9 3e
       0.23489691 0.23247269 0.7519514 0.39380038
000200 63 81 00 3f 1f 8c 2a 3e 6e b9 fd 3e 84 aa 12 3f
       0.5019743 0.16655014 0.49555534 0.57291436
000210 70 51 df 3e d4 15 12 3f 2e 0b d7 3e 4f 10 b5 3e
       0.4361682 0.5706456 0.42000717 0.35364005
000220 c4 c1 20 3f ff 4f dd 3e 95 5b 11 3f af a5 32 3e
       0.6279566 0.43225095 0.5678037 0.17446016
000230 a8 82 54 3e 44 ab 05 3e b6 d1 e3 3e bf a5 f8 3e
       0.20752966 0.13053614 0.44495934 0.48563954
000240 7a 00 b2 3d fa b2 8e 3e 5d 57 b6 3e 5a c2 b7 3e
       0.08691497 0.27870923 0.35613528 0.35890466
000250 8a 0b e2 3e b5 3f f3 3e a5 01 9a 3e 83 b8 f3 3e
       0.4414943 0.47509542 0.3007938 0.4760171
000260 29 42 c2 bb 0e 6b fd 3e 89 3e d7 3e a8 7c 1f 3e
       -0.005928297 0.4949574 0.42039898 0.15574896
000270 2e 01 c1 3e b7 ad 77 3e 37 0d ee 3e ab 35 99 3e
       0.37696213 0.2418736 0.46494457 0.29923758
000280 25 0e 8a 3e 5a 68 f4 3e 1a f8 68 3e f5 4f c0 3e
       0.26963916 0.47735864 0.22750893 0.37561002
000290 48 82 06 3f 74 c5 0b 3f 26 bb 53 3e 58 35 8f 3e
       0.52542543 0.54598165 0.2067686 0.27970386
0002a0 07 36 d2 3e a4 17 9b 3e ca f5 8b 3e b5 81 86 3e
       0.41056845 0.30291474 0.2733596 0.26270834
0002b0 33 b2 05 3b d2 1d b3 3e f2 87 a6 3e 73 a9 91 3e
       0.0020400404 0.3498369 0.32525593 0.28449592
0002c0 fb cd c9 3e a5 2d bb 3e 3b d7 4b 3e 96 e4 1a 3e
       0.39414963 0.36558262 0.19906323 0.15126261
0002d0 10 c8 8c 3e c7 a3 c4 3e 12 a1 38 3e 26 4d 9c 3e
       0.27496386 0.38406202 0.18030193 0.3052761
0002e0 c1 40 90 3e 16 96 c8 3e c0 86 9a 3e cd a5 11 3f
       0.28174403 0.39177006 0.3018093 0.56893617
0002f0 b7 77 ea 3e 71 81 06 3f da a0 aa 3e c2 d5 8d 3e
       0.4579446 0.5254126 0.33325845 0.27702147
000300 5b 6c 0e 3f c2 85 aa 3e 7d 81 35 bc 84 bf 0a 3f
       0.5563409 0.33305174 -0.011078236 0.5419848
000310 9d b6 0a 3e c6 30 cf 3e d1 56 e8 3d 99 b1 6c 3e
       0.13546224 0.404669 0.11344684 0.23114623
000320 8c cb 08 3f b5 d5 36 3f 09 06 43 3e 58 09 0c 3f
       0.5343559 0.7141984 0.19045271 0.5470176
000330 13 5f 22 3f 9a 8b 8c 3e fc 10 c1 3e 53 19 da 3e
       0.6342632 0.27450258 0.3770827 0.42597446
000340 cf 76 31 3e d7 e1 87 3e a4 a7 1f 3e 25 b8 ff 3e
       0.17330478 0.2653949 0.15591294 0.4994518
000350 cd 46 3e 3e 86 d7 06 3f 68 70 01 3f 50 08 f2 3e
       0.18581696 0.5267261 0.50562143 0.47271967
000360 80 0f 21 3f ab a9 ae 3e 31 7f 04 3f 02 dc e3 3e
       0.62914276 0.3411382 0.5175658 0.4450379
000370 c1 7e 9f 3e b3 8a 53 3f bc 37 20 3f 2e dd c2 3e
       0.31151393 0.82633513 0.62585044 0.38059372
000380 44 78 cd 3e 15 a6 e1 3e f1 79 4a 3e ed f4 be 3e
       0.40130818 0.44072023 0.1977308 0.3729624
000390 99 29 14 3f de 70 b5 3e 9e 21 1d 3f 39 ae 91 3e
       0.57875973 0.35437673 0.6137942 0.28453234
0003a0 6b 97 e5 3d 6c d8 9d 39 3b a0 c5 3e 09 3a f0 3e
       0.11210521 0.0003010662 0.3859881 0.46919277
0003b0 42 72 c7 3e 53 e1 f4 ba 62 58 32 3f 06 22 19 3f
       0.3895436 -0.0018682875 0.6966611 0.5981754
0003c0 4d 67 fa 3e 27 39 4b 3e e6 86 ab 3e d0 7d ad 3e
       0.48906937 0.1984602 0.33501357 0.3388505
0003d0 68 35 18 3e c6 a8 14 3f e9 25 be 3e c6 a6 e7 3e
       0.14864123 0.5807003 0.37138298 0.45244426
0003e0 95 6a 39 3f 7a 6f 1a 3f 16 96 99 3e 99 c1 8e 3a
       0.72428256 0.6032635 0.2999732 0.0010891437
0003f0 ed 15 3d 3d f5 5c 25 3f e1 47 00 3f 22 e0 39 3e
       0.04616349 0.64594966 0.5010968 0.18151906

bn1.bias f4 [400]
000000 54 16 68 bf 86 d2 55 bf 7c 05 46 bf 09 5a 2f bf
       -0.9065907 -0.8352436 -0.7735212 -0.6849676
000010 7c bd e1 bb 6e 0f 2d bf 0e 47 8b bf 0b 57 98 bf
       -0.0068890434 -0.6760167 -1.0881059 -1.1901563
000020 a9 72 78 bf fc a0 e0 be 39 30 51 bf 64 fe 77 bf
       -0.9704996 -0.4387282 -0.81714207 -0.96872544
000030 56 f4 df be 2d 73 74 bf a8 d0 c0 be 28 b9 57 bf
       -0.437411 -0.95488244 -0.37659192 -0.842669
000040 81 ea c4 be 8d c1 5d bf 08 99 75 bf fb 7d 65 bc
       -0.38460162 -0.8662346 -0.9593663 -0.014007087
000050 1f 76 35 bf 35 5e d0 be 0e ad 8a bd 19 1b 5a bf
       -0.70883363 -0.40696874 -0.06771289 -0.851976
000060 e0 89 3f bf 93 5a 81 bf b6 0b 06 bf 1a 20 42 bf
       -0.74819756 -1.0105766 -0.5236162 -0.75830233
000070 c3 b9 75 bd 50 d1 31 bf 34 fb 90 bf 37 27 86 bf
       -0.05999161 -0.6946001 -1.1326661 -1.0480717
000080 9b 41 73 bd 1b 77 54 bf 78 f4 80 bf 13 25 14 be
       -0.059388738 -0.8299424 -1.0074606 -0.14467268
000090 47 17 3f 3e c4 79 e6 be 94 5b 91 bf 70 6b 77 bf
       0.18661223 -0.45014775 -1.1356072 -0.9664831
0000a0 d8 30 51 bf 17 d3 3b bf 55 5a b5 3c af 91 20 be
       -0.81715155 -0.7336897 0.0221378 -0.15680574
0000b0 ca 25 17 be 8a 55 c4 be 36 ef ff be fc 21 f4 be
       -0.14760509 -0.3834651 -0.4998719 -0.47682178
0000c0 ed af 15 bf aa ae f9 be f3 f0 1f bf dd d8 1b bf
       -0.58471566 -0.4876607 -0.62477034 -0.6087778
0000d0 79 0a 24 bf 53 26 2f bf 5b 18 83 3e 03 c2 32 bf
       -0.6407848 -0.68417853 0.2560452 -0.6982729
0000e0 13 4a 30 bf 61 e5 c3 bf de 2a 2e bf cf 4f 2f be
       -0.6886303 -1.5304376 -0.6803416 -0.17120288
0000f0 15 f2 58 bf 81 bd 73 bf 80 d6 4e bf 34 6a c3 be
       -0.8474439 -0.95211035 -0.8079605 -0.38166964
000100 d0 d4 1a bf 0e 87 0f bf 18 f7 3d bf b7 f0 0c bf
       -0.60480976 -0.5606545 -0.7420516 -0.550548
000110 61 97 54 bf dc 35 27 bf 47 89 90 bf 80 fe 17 be
       -0.83043486 -0.6531656 -1.1291894 -0.14843178
000120 d9 fc 86 bf 80 85 da be 18 87 af be 29 2b 70 bf
       -1.0545913 -0.42679977 -0.34282756 -0.9381586
000130 90 b1 93 bf 7e c8 7f bf d3 fa e5 bd d9 b7 09 bf
       -1.1538563 -0.999153 -0.112294815 -0.53796154
000140 7a a4 5d be 74 77 72 bf 50 09 cf bf 48 a3 02 bf
       -0.21644774 -0.9471352 -1.6174717 -0.510304
000150 ce 45 26 bf eb b9 bf bd 3c 8b 4e bf 50 ef d1 be
       -0.64950264 -0.09361633 -0.80681205 -0.41002893
000160 8f 4d 48 be ee 0d d0 be 71 90 1d bf 01 2e 1f bf
       -0.19560836 -0.40635628 -0.61548525 -0.6217957
000170 26 8b e4 be ef 68 3b bf e5 61 9f bf ab 6e 7b bf
       -0.44637412 -0.7320699 -1.245175 -0.9821574
000180 55 f5 3a bf 2e 15 80 bd f7 f3 9f be a1 0a e8 be
       -0.73030597 -0.0625404 -0.31240818 -0.4532061
000190 59 fc 2d bf a6 16 ab be 37 e3 79 bf 81 11 a9 be
       -0.67963177 -0.33415717 -0.9761233 -0.33021167
0001a0 8c 70 1d bf 19 34 78 3b d4 76 35 bf c4 0c 8e be
       -0.6149986 0.003787285 -0.7088444 -0.27744114
0001b0 67 ef 2a bd 9b c7 ad bf c8 21 23 bf 29 13 82 bf
       -0.041732218 -1.357654 -0.6372342 -1.0162097
0001c0 21 b7 53 be 1f ce 1e bf 86 93 bb be 24 9c 0c bf
       -0.20675327 -0.62033266 -0.3663599 -0.5492575
0001d0 b7 73 71 bf 4e 4c 9a bc b5 2c d5 bd de dc d1 3e
       -0.9431719 -0.018835213 -0.10408918 0.4098882
0001e0 f6 3a 70 bc 44 55 e5 be cb f2 67 bf 51 c0 96 bf
       -0.014662495 -0.44791615 -0.9060485 -1.177744
0001f0 ac 15 3b bf 6d 1e 84 bd 74 aa af bf 75 bf 8b bf
       -0.73079944 -0.06451116 -1.3723893 -1.0917803
000200 0a 7c 8d bf 84 a2 56 be a4 5b 1d bf bf 78 72 bf
       -1.1053479 -0.20960432 -0.6146796 -0.94715494
000210 a0 10 8c bf fb 42 89 bf 68 15 19 bf 33 11 3f bf
       -1.0942574 -1.0723566 -0.5979829 -0.7463562
000220 5e 8c 8f bf 25 9f 4b bf ac aa 75 bf 36 8e 6f bf
       -1.1214712 -0.7953971 -0.9596355 -0.9357637
000230 76 d2 98 be ca 45 06 3e 9c c2 3f bf 5c 26 77 bf
       -0.2984807 0.1311256 -0.74906325 -0.96542907
000240 4b fa ec be 00 20 86 bc d1 22 9e be a9 26 01 bf
       -0.46284708 -0.01637268 -0.30885938 -0.50449616
000250 4b 08 f6 be 25 e0 7f bf 28 3d d0 be 70 c9 93 bf
       -0.48053202 -0.9995139 -0.4067166 -1.1545849
000260 3f ba 9c bd 87 4b 6e bf af 4b 45 bf 46 ec af bd
       -0.07652711 -0.93083996 -0.7706861 -0.085899875
000270 9c fa 2d bf 74 67 fa be 1d c1 75 bf 52 47 86 be
       -0.67960525 -0.48907053 -0.9599779 -0.26226288
000280 7e 24 53 bf aa cb 6b bf e6 c2 7b be 8a b8 0d bf
       -0.8247756 -0.9210764 -0.24586067 -0.5535971
000290 bb 8f 2f bf 97 06 46 bf ea ed 2f 3d fc 18 8a 3c
       -0.6857869 -0.77353805 0.042951502 0.016857617
0002a0 5b 3f 91 bf e4 06 4a be 7d db f1 be d7 87 a3 bf
       -1.134746 -0.19729191 -0.4723777 -1.277583
0002b0 d6 ae 7f bd e2 b1 e2 be 24 5f f6 3d 85 30 aa bd
       -0.062422596 -0.4427634 0.120298654 -0.083100356
0002c0 8f ea 94 bf 21 15 f2 be 9e e1 d2 3e 07 2e 30 bf
       -1.1634082 -0.47281745 0.41187757 -0.6882023
0002d0 53 98 40 bf 1f 74 4e bf 55 d9 99 bd f7 f6 29 bf
       -0.7523243 -0.80645937 -0.07512156 -0.66392463
0002e0 6b 42 0d bf f2 e7 4d bf 9a 6d b3 be 28 d8 2c be
       -0.5517947 -0.80432045 -0.35044557 -0.16879332
0002f0 a4 ec 6c bf 01 ac a7 bf 17 97 ea be 52 01 8b bf
       -0.92548585 -1.3099366 -0.45818397 -1.0859778
000300 80 d8 69 bf 00 c0 85 be 11 87 dd bd 90 7c 7e bf
       -0.9134598 -0.26123047 -0.108167775 -0.9940882
000310 37 5f d7 be 0b f1 9b be 0c e3 44 bf 21 20 99 be
       -0.4206483 -0.3045734 -0.76908946 -0.29907325
000320 3b fe 8a bf ca 5a 9d bf 93 2e 7a bf 23 ef 4c bf
       -1.0858835 -1.2293332 -0.97727317 -0.80052394
000330 b4 4f 84 bf e8 a3 a8 bf 82 73 1e bf d4 63 29 bf
       -1.0336823 -1.317502 -0.61895 -0.6616795
000340 84 0c 45 bf 93 f1 03 bf 5f 3a 4a bd 7a 63 14 bf
       -0.7697222 -0.5154049 -0.049372073 -0.5796429
000350 6b 45 22 bc 77 99 5b bf fb b9 59 bf f7 56 86 bf
       -0.009904246 -0.85781044 -0.8504941 -1.049529
000360 1b a8 7d bf 98 61 d1 bf 0b de e3 be 13 fb 55 bf
       -0.99084634 -1.6357908 -0.44505343 -0.83586234
000370 fc c8 0b bf 53 ce 85 be 0e 76 97 bf c5 5b ee bd
       -0.5460355 -0.26133975 -1.1832902 -0.116385974
000380 3c af 46 bf 8d 5b 4f bf d9 33 47 be 03 9f cd be
       -0.77611136 -0.8099907 -0.19453372 -0.4016038
000390 80 ea 6a bf 38 0b df be 96 2c 48 3d 63 d0 17 be
       -0.9176407 -0.43563247 0.048870645 -0.14825587
0003a0 63 54 09 bf ac bd f6 bb fe 91 68 bf 68 a0 fc be
       -0.5364439 -0.007529935 -0.90847766 -0.4934113
0003b0 4f 60 cc be 97 84 92 bd 41 27 97 bf 96 fb 82 bf
       -0.39917228 -0.07154196 -1.1808854 -1.0233028
0003c0 41 7d 23 bf eb 93 6b be 77 73 16 bf 0a e1 dd bd
       -0.63863 -0.23005645 -0.58769935 -0.108339384
0003d0 37 f8 34 bf b9 a3 0a bf db f8 d7 be d8 4d ca bf
       -0.70691246 -0.5415607 -0.4218205 -1.5805006
0003e0 99 15 ab bf d9 2c 59 bf 09 cf a9 be ef 15 10 bd
       -1.3365966 -0.8483406 -0.33165768 -0.035177168
0003f0 a5 3e 11 bf 69 e0 94 bf ba fe 63 bf 16 b8 3b bf
       -0.5673621 -1.1630985 -0.89060557 -0.7332777

bn1.running_mean f4 [400]
000000 ae 6e 13 40 19 82 c0 c0 98 05 b7 c0 cd 1d 8f 3e
       2.3036304 -6.015881 -5.719433 0.27952424
000010 b3 42 88 3d 5a b1 31 40 ab bb d1 3f 40 7d 98 3f
       0.06653347 2.7764497 1.6385397 1.1913223
000020 bb e0 09 c1 cb 81 98 3f 9f 38 3d c1 91 7d 92 c0
       -8.617366 1.191461 -11.8263235 -4.577828
000030 93 d1 84 c0 bc 10 c0 be 6d 70 eb 3f ff 96 eb be
       -4.150583 -0.37512767 1.8393685 -0.46013638
000040 0d 0b 0d 40 e6 82 28 3f d6 76 42 c0 26 f3 c8 be
       2.2037995 0.65824735 -3.0385032 -0.39248008
000050 e2 00 1b bf 05 48 21 c1 3c 20 d5 be e1 30 55 40
       -0.6054822 -10.080083 -0.41626155 3.3311083
000060 73 28 2a 3f a4 55 bd c0 ef 1b 28 c1 80 bb b2 bf
       0.6646797 -5.916704 -10.50682 -1.396347
000070 7e 90 c7 bd cf fb a5 c0 68 f0 92 c0 34 8f bc c0
       -0.097443566 -5.1869884 -4.5918465 -5.892481
000080 bb ff a7 be 25 60 ba c0 8e b3 77 c0 99 40 26 40
       -0.32812294 -5.8242364 -3.8703341 2.5976927
000090 97 bb e7 3f c6 54 9f c0 cc 2f 42 c0 ee 80 fb c0
       1.8104123 -4.9790983 -3.0341673 -7.8594885
0000a0 82 6c 9a bf 94 03 30 3f 79 7f 07 41 58 0f 23 40
       -1.2064364 0.6875546 8.468621 2.5478115
0000b0 79 ff 0c c0 c7 07 8b c0 98 7a f0 3f 00 fa c5 bf
       -2.2030928 -4.3446994 1.8787413 -1.5466919
0000c0 f1 6b 6e c0 4e ca 1d be 8f f8 38 40 e7 17 54 3f
       -3.7253382 -0.15409204 2.8901708 0.8284897
0000d0 7f 86 ae 3f 17 af 1c c1 f9 a8 56 40 36 7d 83 c0
       1.3634795 -9.792747 3.3540633 -4.1090345
0000e0 42 c7 56 3f 3c f1 38 c0 d8 39 cb bf a6 67 af 3f
       0.83897793 -2.8897238 -1.5877028 1.3703506
0000f0 1b 5c 94 c0 3a 07 0a 40 82 87 94 c0 d7 9f 16 3f
       -4.6362433 2.156691 -4.6415415 0.58837646
000100 b1 e1 b5 bf 3e 7d a3 bf 55 1f cc bf e0 95 72 c0
       -1.42095 -1.2772596 -1.5947062 -3.7903976
000110 c0 67 bb bf 00 52 27 bf d4 20 e7 c0 bf 12 83 3e
       -1.4641037 -0.653595 -7.2227573 0.2560024
000120 ce 27 9c c0 5a d8 0d c0 6f 10 a4 be 73 e0 f4 bf
       -4.879859 -2.21633 -0.32043788 -1.9130996
000130 31 53 e0 bf 5c f5 b9 c0 e7 67 89 40 66 07 fc c0
       -1.7525388 -5.811201 4.2939334 -7.875903
000140 b2 4f e3 40 40 c8 e0 c0 47 ed b8 40 c1 b2 c3 3f
       7.1034784 -7.0244446 5.7789645 1.5288926
000150 05 36 8c 3f 91 5f 43 3d 31 d3 70 bf 0e 0a 05 bf
       1.0953985 0.04769856 -0.9407225 -0.5196847
000160 43 24 65 c0 44 9a 8f bf a8 be 59 40 cf 5a 16 bf
       -3.5803382 -1.1218953 3.4022617 -0.5873231
000170 2b 2f e8 c0 bb 1e 1b 3f e4 f1 22 c1 d7 61 a5 c0
       -7.255758 0.60593766 -10.184055 -5.1681933
000180 77 c4 ce c0 bc bf 6c bf 7c 7f 7a bf c5 eb e2 be
       -6.4614825 -0.92480063 -0.97850776 -0.44320503
000190 4f d6 70 c0 c9 5d 2c bf f7 e0 bb bf 21 2c 7f 40
       -3.7630804 -0.67330605 -1.4678029 3.9870684
0001a0 81 da 95 c0 84 4e da 40 79 43 ca 40 75 8d 30 40
       -4.682923 6.8220844 6.3207364 2.7586339
0001b0 40 00 e2 bd 31 46 ae bf 5a 7c 19 c1 6c d9 c4 c0
       -0.11035204 -1.3615171 -9.592859 -6.1515408
0001c0 e3 00 ad 40 ab c8 10 41 c4 84 24 bf 9a 0d 85 c0
       5.4063582 9.048991 -0.64265084 -4.1579103
0001d0 a9 f3 69 c0 00 58 80 bf e5 39 7f c0 74 b8 1a 41
       -3.6554968 -1.0026855 -3.9879086 9.6700325
0001e0 9d eb 5f 3f 88 35 a7 bf 3f ad 78 3f ef e8 80 3e
       0.8746889 -1.3063211 0.9713935 0.25177714
0001f0 bf d8 1c c1 5b 89 17 c0 a8 7f 78 c0 cf 61 c5 c0
       -9.802917 -2.3677585 -3.8827915 -6.1681895
000200 79 0f b1 c0 23 33 94 c0 51 71 04 bf e2 fd 27 40
       -5.5331388 -4.6312423 -0.5173541 2.6248708
000210 00 1b ce c0 4b 07 47 c0 a4 a2 3f 41 e0 81 5d 40
       -6.440796 -3.1098201 11.977207 3.461052
000220 7d 7c 0d c0 fe ad 1c c0 7d 17 bf bf ac 47 c7 c0
       -2.2107232 -2.4481196 -1.4929043 -6.227499
000230 a2 76 f6 3e 86 c3 5e 40 43 01 02 3f f0 3b 96 c0
       0.48137385 3.4806838 0.50783175 -4.6948166
000240 07 90 36 c1 71 ab cc bd 59 18 86 c0 53 6e 0f c1
       -11.410163 -0.09993637 -4.190472 -8.964435
000250 c7 b7 96 3f 2c 31 55 40 80 79 23 3f 71 5a 0c 41
       1.1774834 3.3311262 0.6385727 8.77208
000260 83 c5 33 bd 80 73 46 40 81 16 81 40 1f cf a5 bf
       -0.043889534 3.1007996 4.033997 -1.2953833
000270 a0 47 27 c0 2a 5d 74 40 72 cd 17 40 9b 39 9e 40
       -2.6137466 3.8181863 2.3719144 4.944532
000280 91 01 b2 c0 2b 0d 7e c0 f0 0d ab 3f c8 48 f8 bf
       -5.562691 -3.9695537 1.3363628 -1.9397211
000290 59 e0 49 c0 3d 26 39 be e9 d9 ca 3f 57 50 86 40
       -3.154318 -0.18080993 1.5847751 4.197307
0002a0 c6 00 e3 c0 79 da 33 40 56 29 e6 3f 26 6b 23 c1
       -7.0938444 2.8102095 1.7981365 -10.213659
0002b0 18 f7 7c be 9c e7 73 c0 7a ac 08 c0 73 5a 64 3f
       -0.24703634 -3.8110113 -2.1355271 0.89200515
0002c0 19 2b 6d 40 4e 7c e9 bf 47 29 56 40 1d f8 77 be
       3.7057555 -1.824106 3.3462694 -0.24215741
0002d0 36 7a ef c0 e2 c0 8f c0 f8 68 bb 40 1e f5 2b c0
       -7.4836683 -4.4922953 5.8565636 -2.6868358
0002e0 31 b8 89 c0 9f 86 55 c0 35 66 aa bf a1 53 9d bf
       -4.3037343 -3.3363416 -1.3312441 -1.2291147
0002f0 68 e7 06 41 77 58 04 c1 7a 66 6b c0 68 5d 54 bf
       8.431496 -8.271598 -3.6781297 -0.82955027
000300 ec 4a dc bf 37 c9 9a 40 bf 4c 8e 39 7b 6b 3d c0
       -1.7210364 4.8370624 0.0002714153 -2.959685
000310 f7 9a 61 3f 89 a0 84 40 4c 79 b0 c0 62 af f9 bf
       0.8812708 4.1445966 -5.5148067 -1.9506648
000320 e8 f7 5f 3f 1f 1f 74 c0 55 04 dd bf 27 e5 5c c0
       0.8748765 -3.8143995 -1.7266947 -3.4514863
000330 a6 a4 65 bf 2f 3b 86 c0 59 87 39 bf 6d a9 37 c0
       -0.8970436 -4.1947246 -0.7247215 -2.869716
000340 48 b5 78 c0 33 13 8d bf ae 25 4b bf 87 de 5a 3f
       -3.8860645 -1.1021484 -0.7935437 0.854958
000350 9d 42 58 40 d4 9c fe bf 6e 6c 03 c1 96 2c 04 c1
       3.3790658 -1.989161 -8.213972 -8.260885
000360 06 14 3e c0 74 50 00 c0 1a ed a4 bf 57 e6 0c c0
       -2.9699721 -2.0049105 -1.2884858 -2.2015588
000370 73 b1 01 c1 2a 4d 0c bf f6 94 cd c0 b8 40 f1 3d
       -8.105823 -0.54805243 -6.4244337 0.11779922
000380 5a d1 ca be 7c aa 0e c0 f7 60 80 c0 2d 90 05 40
       -0.39612848 -2.2291555 -4.0118365 2.0869248
000390 00 a0 c7 bf 67 86 be c0 5c bf e0 3f 20 ef 8c 3f
       -1.5595703 -5.9539065 1.7558398 1.1010475
0003a0 dd 4c 5a c0 7c ec 57 be f2 15 a0 c0 05 d5 3a 3e
       -3.4109414 -0.21086305 -5.002679 0.18245323
0003b0 98 20 ad 40 bd 71 b3 3e 40 b4 08 3f ed 38 88 c0
       5.4102287 0.35047713 0.5340004 -4.256949
0003c0 d1 d8 7c c0 f4 c0 9b c0 8a ab 0a 40 f4 d7 35 3f
       -3.9507334 -4.867304 2.16672 0.71032643
0003d0 36 63 3f c0 55 c3 42 40 c2 57 00 c0 3a 72 7d 3e
       -2.9904304 3.0431721 -2.0053563 0.24750605
0003e0 3a 89 35 bf 43 e2 97 bf 9e a2 b2 3f c4 d1 c2 be
       -0.70912516 -1.1865925 1.3955877 -0.38050663
0003f0 ef 80 57 3f e5 3d 83 c0 91 62 92 c0 d1 42 0a bf
       0.8418111 -4.1013055 -4.574532 -0.54008204

bn1.running_var f4 [400]
000000 e9 d7 80 42 d2 d6 67 42 71 10 9d 42 b0 23 e4 42
       64.4217 57.959785 78.53211 114.0697
000010 a5 4d 52 3d 46 c1 81 42 0e 49 9a 42 74 e6 4c 42
       0.05134358 64.87749 77.142685 51.22505
000020 df 24 fe 41 b3 fc 10 43 cb 0b a8 42 86 f8 09 42
       31.768003 144.9871 84.02303 34.4927
000030 eb 42 92 42 6e ae 10 42 29 bd 47 41 2a 9f 00 43
       73.1307 36.17034 12.483682 128.62173
000040 ce 17 8a 42 e4 dc 9d 42 77 ad 74 42 c1 86 0a 3e
       69.04649 78.93143 61.1694 0.13527967
000050 87 22 75 43 31 27 a8 41 90 fb e2 3e 2a e0 77 42
       245.13487 21.019136 0.44332552 61.96891
000060 a4 65 3c 43 ba 5f 09 43 f6 ca 2a 42 fb 20 b7 42
       188.39703 137.37393 42.698204 91.564415
000070 3f aa 1e 3e 74 59 f1 41 45 2d 88 42 14 41 0c 42
       0.15494631 30.168678 68.08842 35.063553
000080 0d f6 9d 42 cc 32 63 42 7c bd 0d 42 26 fd ab 42
       78.98057 56.799606 35.435043 85.99443
000090 39 be c6 41 37 6d f9 42 a6 7e bd 42 a1 e1 08 42
       24.842882 124.71331 94.74736 34.22034
0000a0 d3 32 a5 42 bb 78 3b 41 1e da c9 42 72 ab b5 42
       82.599266 11.716975 100.92601 90.834854
0000b0 ac 93 b6 42 b4 00 55 42 5f 9a 45 41 d5 f1 04 42
       91.28842 53.250687 12.350188 33.236164
0000c0 18 17 65 42 e1 4b 17 42 be 8d 27 42 8a 15 21 41
       57.272552 37.8241 41.88842 10.067759
0000d0 f3 46 1a 42 8a 30 9f 42 3c f6 1d 41 a1 13 0d 43
       38.569286 79.5948 9.872616 141.07668
0000e0 c9 65 87 42 37 17 8d 41 ff d7 63 42 40 85 ac 40
       67.6988 17.636335 56.960934 5.391266
0000f0 db b8 a4 42 d9 5d 76 42 88 95 44 42 f9 8f c9 42
       82.361046 61.59165 49.146027 100.7812
000100 b2 84 3e 41 b3 ba 4b 42 8b a0 ea 41 40 a1 b5 42
       11.907396 50.932323 29.32839 90.81494
000110 2f cc a7 42 61 f8 a6 41 ec be 64 42 cc 40 91 42
       83.898796 20.871279 57.186447 72.62656
000120 20 e1 4a 42 df d0 a6 41 ca 00 44 42 b4 f1 06 43
       50.71985 20.851988 49.00077 134.94415
000130 cd 25 e1 42 58 57 19 43 71 b9 14 41 41 3d 0b 42
       112.57383 153.34119 9.295274 34.80982
000140 56 f3 05 42 e0 86 b2 42 4a 2e fd 42 10 cf e9 42
       33.487633 89.26343 126.59041 116.90442
000150 de 7d 91 42 51 ce 34 3e c8 ff 66 42 25 54 97 42
       72.745834 0.17656828 57.749786 75.664345
000160 44 e3 20 42 c2 0f 2d 42 3a 81 02 44 00 e7 25 42
       40.22194 43.26539 522.01917 41.475586
000170 d3 00 01 43 2e 3c 3d 42 32 64 88 42 05 04 2e 42
       129.00322 47.30877 68.195694 43.503925
000180 8e 2b 5c 42 0b 07 8f 42 83 9a 94 41 d2 91 f7 41
       55.042534 71.513756 18.575445 30.946201
000190 28 da 67 42 1e ff 99 42 8a 7d 9b 42 7b f5 6b 42
       57.963043 76.998276 77.74519 58.989727
0001a0 f4 53 c2 41 d5 ce bf 43 fb fb cc 42 1c 43 5d 42
       24.290993 383.61588 102.49215 55.315536
0001b0 6c 44 7c 3e fa 03 19 43 de f9 0c 42 f1 e1 b3 42
       0.24635476 153.01553 35.24401 89.94129
0001c0 3b 75 1a 43 62 8b 85 42 86 4f 87 42 ac 99 07 42
       154.45793 66.77223 67.65532 33.90007
0001d0 f1 08 95 42 31 5d 64 42 22 16 38 42 b7 7d 83 43
       74.51746 57.091007 46.021614 262.98215
0001e0 8a 8e 05 42 a6 03 41 42 77 46 54 42 30 3e 98 42
       33.3892 48.253563 53.068813 76.12146
0001f0 47 a0 be 42 a1 37 0a 43 80 c8 60 42 f6 88 d8 42
       95.31304 138.2173 56.1958 108.2675
000200 32 ef 2c 42 c7 a7 d4 42 74 e4 2c 42 8b 01 8a 42
       43.23359 106.32769 43.2231 69.00301
000210 4e 4c 02 42 87 3a 4b 42 cc ba 02 43 c9 e5 2e 42
       32.574516 50.807156 130.72968 43.7244
000220 40 46 27 42 d3 ad 72 42 b7 e7 2f 42 69 de 8c 42
       41.818604 60.66975 43.976284 70.434395
000230 cd 0b 17 43 e1 8a e2 41 b4 5f 51 42 ad ac b9 42
       151.0461 28.317812 52.34346 92.83726
000240 c9 d0 96 42 4d 16 b6 40 cc 45 bd 42 70 a2 00 42
       75.40778 5.6902223 94.63632 32.15863
000250 7f da 9d 42 b4 bd b0 42 4f 0e 03 43 3d 99 3e 42
       78.92675 88.370514 131.0559 47.649647
000260 eb 8c 06 3f 76 53 b3 42 a4 8a 70 42 0a 87 0b 42
       0.52558774 89.66301 60.13539 34.881874
000270 56 46 a3 42 d7 fe 4c 42 cd 40 de 42 4d 48 91 42
       81.637375 51.248867 111.126564 72.64121
000280 f6 08 b9 42 6d 6f a5 42 0e 79 8e 42 fb 2b 3b 42
       92.5175 82.71763 71.236435 46.79295
000290 99 2d f7 41 a5 54 45 42 28 dd 9d 42 34 66 10 42
       30.897264 49.33266 78.931946 36.099808
0002a0 ee fd 95 41 5c 8c b4 41 71 8c 67 41 51 09 9b 42
       18.74899 22.568535 14.471787 77.518196
0002b0 f4 e7 79 3e bc f4 fe 41 c2 29 9a 42 e5 e1 bb 40
       0.2440489 31.8695 77.08156 5.871325
0002c0 4d a4 8f 42 7b a6 67 42 82 fe 63 41 e2 61 ee 42
       71.8209 57.91258 14.249636 119.19118
0002d0 53 79 35 42 fa 05 73 42 c1 d5 41 42 43 1d 0d 42
       45.36848 60.755836 48.458744 35.278576
0002e0 dc 81 8d 42 eb a8 7f 42 2a e4 d5 40 69 9f a5 42
       70.75363 63.91496 6.684102 82.81135
0002f0 4e 6b f3 41 53 20 01 42 80 14 e7 41 ad bb ee 42
       30.427395 32.281567 28.88501 119.366554
000300 27 31 94 42 11 b2 90 43 a6 e5 92 3f 0b a2 14 42
       74.096 289.39114 1.1476333 37.158245
000310 ec b3 07 43 ba d6 56 42 ad 4c 5a 42 9a a8 4d 41
       135.70282 53.709694 54.57488 12.8536625
000320 b3 31 3f 42 66 bd c3 42 c5 bc 9b 42 55 ad cb 41
       47.798534 97.86992 77.86869 25.459635
000330 2f aa 8b 42 b9 37 9a 42 cf ac 35 42 0d 6f 00 42
       69.83239 77.10883 45.41876 32.108448
000340 f2 df 43 42 c2 ef 87 42 c4 6a 8a 42 20 f7 ce 43
       48.968697 67.96828 69.20853 413.93066
000350 07 01 ad 42 76 4c 16 42 fd 8a 9d 42 f2 a2 c3 42
       86.50201 37.57467 78.77146 97.81825
000360 0f fa 27 42 2a 39 ce 42 04 0c 63 42 70 0e ba 42
       41.994198 103.11165 56.761734 93.0282
000370 da cc be 42 4a 11 d6 42 0b 14 10 43 92 bf 00 43
       95.4001 107.03377 144.0783 128.74832
000380 c0 a5 c6 42 a9 6e b0 42 8c bf 7f 42 49 92 6b 42
       99.32373 88.21613 63.937057 58.892857
000390 7e 4e 75 42 b0 72 e6 41 2b 73 f5 42 63 c6 2d 43
       61.326653 28.806 122.72494 173.77495
0003a0 56 1b 06 43 88 c2 32 3d c5 06 63 42 be 33 62 41
       134.10678 0.04364255 56.75661 14.137632
0003b0 d2 65 80 42 82 b4 12 3f 3c ba 9d 42 2b 78 bf 42
       64.19887 0.57306683 78.86374 95.7347
0003c0 61 f7 2c 42 3c 06 9c 42 6f fe 79 42 4c 1b db 40
       43.24158 78.01218 62.49847 6.847082
0003d0 b9 cf a3 42 33 ed 91 42 fa 2a 2b 43 a2 4c b0 42
       81.90571 72.96328 171.16788 88.14967
0003e0 54 82 bc 42 71 fc bc 42 18 60 0d 43 08 28 d3 3e
       94.25455 94.49305 141.37537 0.4124148
0003f0 b8 f3 fb 40 5c 9f 25 43 2a 92 26 42 73 a4 aa 42
       7.873501 165.6225 41.64274 85.32119

fc2.weight f4 [300, 404]
000000 7e eb 6a bd ab 91 a5 bd 5c ce e9 bc 69 45 ad bc
       -0.05735349 -0.080844246 -0.028540783 -0.021151261
000010 46 36 ca bc 7b 1c 5f bb 9b bf e3 3b 0d ad 6b 3b
       -0.024684083 -0.0034044075 0.0069503314 0.00359613
000020 40 a0 a2 bc 7c 6a 14 bd 1d 1b 8d bd cc 10 68 bb
       -0.019851804 -0.036234364 -0.06889937 -0.0035410402
000030 b4 e9 3c bd ea cc 84 bc 48 bc ae 3c 55 40 05 3c
       -0.046121314 -0.016210992 0.021330014 0.008133014
000040 9a cc 88 3c f6 04 ae bc e0 81 d4 3c fa e0 eb 3c
       0.016699124 -0.0212426 0.025940835 0.0287938
000050 6a 09 09 3d a6 2c 81 bd 22 80 77 bd 98 96 5a bc
       0.033456244 -0.06307344 -0.06042493 -0.013341568
000060 d4 8b 81 bd 01 c1 f4 bc b7 a2 d1 bc 61 6a 35 bc
       -0.06325498 -0.029877188 -0.025590284 -0.011072726
000070 cb e6 18 3d 9c 3e 85 3c 94 bf 37 bd f0 87 07 3d
       0.037329476 0.016265206 -0.044860438 0.033088624
000080 ba d4 4a bd e5 d4 64 3c c7 c1 93 bc c4 08 0e bd
       -0.049519278 0.013966774 -0.018036736 -0.03467633
000090 d5 47 ca bd 14 37 37 3c 04 93 21 3d 68 ca a2 bd
       -0.09876982 0.011182565 0.039446846 -0.07948762
0000a0 00 13 1b 3d a6 47 2a bd e3 a9 a0 bd 3c e0 65 3b
       0.037859917 -0.041572236 -0.07844903 0.003507628
0000b0 40 d4 0b bd 51 01 2f bd e6 06 23 bd e5 72 bc 3c
       -0.034137964 -0.042725865 -0.0398015 0.023004005
0000c0 fc 25 2f bd 06 71 d7 3c 47 c0 cd bc dd a2 92 bd
       -0.042760834 0.026299011 -0.025116099 -0.0715997
0000d0 55 6a 6c bd 89 9e ca bc 72 64 99 3c 46 69 cc 3c
       -0.057718594 -0.024733799 0.018724654 0.024952542
0000e0 ee 6f 71 3b fe ac 9a bd c1 18 c9 bc 56 75 50 bc
       0.0036840397 -0.07552527 -0.024547936 -0.012723288
0000f0 17 dd 4a bc cc 5a 04 3d 83 9c 85 bc f2 89 9f bd
       -0.0123818135 0.032313153 -0.016309982 -0.07789983
000100 57 c9 9e bc 3f d0 9b bc fa 7e 6c bd 7a 72 5c bc
       -0.019383116 -0.019020198 -0.05773828 -0.013455028
000110 2b 20 67 bd 64 31 8a bc 54 4b 0b 3d 8a cb 63 bd
       -0.056427162 -0.016869254 0.034007385 -0.05561403
000120 e5 5d a8 bd 5d 47 05 3c 9c d5 f0 bc 27 d8 75 bc
       -0.08221034 0.00813469 -0.029398732 -0.015005148
000130 da d5 3c bd f6 07 1c 3d 94 e0 1e bd 9a 08 36 bd
       -0.046102382 0.03809353 -0.038788393 -0.044441797
000140 ec fd b3 3c dd b8 34 3d 59 a4 56 bc 2a b0 04 3d
       0.021971665 0.044121612 -0.013100707 0.032394566
000150 bc 66 66 bd 87 93 52 39 37 63 09 3d f3 86 3e bc
       -0.05625032 0.00020082119 0.033541884 -0.011628854
000160 62 92 9e 3c 7e 59 ce 3c 50 44 17 3c 5e ef 26 3d
       0.01935691 0.025189158 0.009232596 0.040755622
000170 e6 0b 96 ba 56 0a 5d bd 7a 4f 06 3c a8 f7 bc 3b
       -0.0011447638 -0.053964935 0.00819766 0.0057668276
000180 ef 0f 8a bd 34 76 2a bc aa a5 06 3d f3 26 70 bd
       -0.0674132 -0.010404158 0.032872833 -0.058630895
000190 b5 33 8e 3c a9 c2 1f bc a8 26 4f bd b6 c7 8c bc
       0.01735864 -0.009751 -0.050573975 -0.017185073
0001a0 19 f8 dc bb 82 a0 a9 bd 56 b7 d8 3c 5a 24 47 bb
       -0.0067434427 -0.082825676 0.026454609 -0.0030386657
0001b0 ee 27 cc 3b 02 d5 49 bd 2b 11 37 3d 7e 0a 85 bd
       0.006230346 -0.049275406 0.044694107 -0.06496142
0001c0 fd 14 1b bd b8 d8 21 bb 28 d8 20 bc f9 d5 44 bd
       -0.037861813 -0.0024695825 -0.009817161 -0.048055623
0001d0 69 75 47 bd 8d 7b 4d bd 68 92 f8 3c 5d 49 89 bd
       -0.048695955 -0.050166655 0.03034325 -0.06703446
0001e0 2d c0 82 3c d1 e3 b8 3c f8 40 04 bd 62 8e 4c bc
       0.015960777 0.022569569 -0.03228852 -0.012485119
0001f0 ae 13 97 bb 9b 26 af 3c 9c 1a 0a bd 6c b7 7d bd
       -0.0046105003 0.021380713 -0.033716783 -0.061942503
000200 da ad 33 3a c5 df 01 bd 83 dc 46 bc 88 a6 1f 3d
       0.0006854214 -0.031707544 -0.012137535 0.038977176
000210 b3 db d4 bc 04 59 44 bd 9f 0d 0b 3d d5 58 6d bc
       -0.025983667 -0.047936454 0.033948537 -0.014486511
000220 97 bf ba bc 2e a3 91 bd 5a 12 ad 3c d8 06 17 3d
       -0.022796435 -0.07111202 0.021126915 0.03687176
000230 52 aa 50 3c e4 21 df bc f8 13 90 bc 76 41 a4 bd
       0.01273592 -0.02723784 -0.017587647 -0.08020298
000240 95 b1 d3 bc 92 ba d1 bc 77 e3 72 bc 39 12 14 bb
       -0.025841514 -0.025601659 -0.01482474 -0.002259387
000250 44 48 35 bd 9c 49 4f bd 89 dc 9c bc 28 d3 34 3d
       -0.04425837 -0.05060731 -0.019148128 0.044146687
000260 84 c5 ac bc 2c 12 18 3d 50 7f 12 ba 4b 63 21 bd
       -0.021090277 0.037126705 -0.0005588429 -0.039401334
000270 9d cd 6d 3a 2e 3b a2 bc 82 34 f3 bc be b7 95 bd
       0.0009071471 -0.01980361 -0.029688124 -0.07310437
000280 8f 61 53 bd c9 0b 33 bd 36 6f 58 3d 26 c9 55 bd
       -0.05160671 -0.04371241 0.052840434 -0.052193783
000290 be c9 01 3d 2d bb bc 3c 06 08 5b bc 29 15 93 bc
       0.031686537 0.023038471 -0.013368612 -0.017954426
0002a0 c6 1b 49 bd 51 eb 84 bd 39 11 b4 bd e6 d6 45 3c
       -0.049098752 -0.064901955 -0.087923475 0.012075162
0002b0 f9 f2 05 bc f5 ff 81 3a 8e 60 c2 bb b2 0e 17 bd
       -0.008175605 0.00099182 -0.0059319204 -0.03687925
0002c0 26 f7 fb bb 65 b7 5d 3c 0e 4b 5a bc 3f 13 c4 bc
       -0.0076893745 0.013532494 -0.0133235585 -0.023934959
0002d0 9e 40 b2 ba 27 08 84 bd ca c8 9b bd 7f c8 c0 bd
       -0.001359958 -0.064468674 -0.07606657 -0.094132416
0002e0 d6 d6 7e bd 01 43 fb bc 9d 13 7d bd 36 10 d1 bc
       -0.062216602 -0.030671598 -0.061786283 -0.025520425
0002f0 cf 2e e7 bc 89 27 cb bc 81 a1 03 bd ba 83 1a bd
       -0.028220562 -0.024799125 -0.032136444 -0.03772328
000300 29 51 04 bd 67 75 64 bd b3 78 76 bd af 50 fd bb
       -0.032303963 -0.055776026 -0.0601737 -0.0077305655
000310 a8 26 30 bd d1 a5 81 bd 42 ba d8 3c a4 ef 59 3c
       -0.043005615 -0.06330455 0.026456002 0.013301764
000320 11 4c 7e bd 84 9f 85 bd 64 12 89 bd 41 29 1f bd
       -0.06208426 -0.06524566 -0.06692961 -0.038857702
000330 74 9b 11 bc 6f 16 00 bd 61 7f 1a bd 40 38 90 3c
       -0.008887161 -0.031271394 -0.037719134 0.017604947
000340 8f ae a8 bc 16 dd 22 bd b4 2b 3a 3d 4e f0 10 bd
       -0.020591049 -0.039761625 0.045451835 -0.035385422
000350 d0 97 07 bd c6 ec 38 bd 86 57 58 bd e2 52 dd bb
       -0.033103764 -0.04514768 -0.052817844 -0.006754265
000360 c2 2c 56 ba 90 45 68 bd ae 77 59 bd d9 dc 9a bc
       -0.00081701216 -0.056706965 -0.05309265 -0.018904136
000370 a8 62 75 3c 31 8c ab bb ed 60 ce 3a 42 5f 87 3c
       0.014977135 -0.005235218 0.0015745439 0.016524915
000380 25 6f dc 3a a9 93 43 3c 76 e6 a8 bc ca 84 ba bc
       0.0016817792 0.01193706 -0.020617705 -0.022768397
000390 47 1c 10 bd 03 76 09 bd f4 be 6a 3b 33 ee 62 bd
       -0.035183217 -0.03355981 0.0035819383 -0.055402946
0003a0 da 29 84 3c 22 6d 79 bb ae 65 3f bc b1 2a 67 bd
       0.016133238 -0.0038059433 -0.011681957 -0.056437198
0003b0 56 d0 20 bd ba 9f fe 3b 00 c6 34 bd b3 5c 3d bd
       -0.039261185 0.0077705057 -0.04413414 -0.046230983
0003c0 f0 1f 50 3b 99 f7 f2 3c b3 72 f3 3b b4 88 ab ba
       0.0031757317 0.02965908 0.0074294447 -0.0013087005
0003d0 91 1f cb 38 4f 75 6b bc c1 13 b2 bb 76 8f 9f 3c
       9.685674e-05 -0.01437123 -0.0054344838 0.019477587
0003e0 49 e1 41 3d 5e c9 33 3d d1 b8 d3 bb e6 d5 25 3d
       0.04733399 0.04389321 -0.006461241 0.040487193
0003f0 d1 51 d8 bc cc 0d 54 3c 78 11 19 3d 9a 7b 19 3d
       -0.0264062 0.012942743 0.037370175 0.03747139
